best_qat_model.pth (torch, 447293 bytes, 12 tensors)

weight f4 [4, 2, 3, 3]
-0.34420955 -0.20392685 0.70982444 0.30332837 0.32853812 0.48451725 0.42766356 0.41286027
0.42772466 -1.4148531 -1.6434168 0.59976405 -0.6994642 -1.0719173 -1.0812565 0.70632786
-0.13163619 -1.1798604 -1.1961316 -0.69349277 0.14010634 0.26861358 -0.11900048 -0.062071368
0.4910253 0.44486356 0.22759272 0.3650159 -0.14520364 -0.0045986036 0.9609494 0.572557
-0.21540186 1.3379031 0.8409478 0.4144492 1.8801532 1.7091937 2.3510418 1.7299395
2.7898226 2.243635 0.83592457 2.4660065 2.0879195 0.9130184 0.1500439 0.86407125
0.4956233 0.76351196 -0.23586893 -0.08357178 0.22224735 -0.45472175 0.59298074 0.4304051
0.45849764 1.001659 1.7045745 1.2513162 1.7490962 2.4195406 2.418455 1.9974661
1.0665936 1.0233628 1.6071962 1.5954996 0.39663872 1.2132133 0.8788708 0.64620817
00000000: 3c3c b0be 33d2 50be 0eb7 353f db4d 9b3e
00000010: 2636 a83e a512 f83e b8f6 da3e 6c62 d33e
00000020: bafe da3e e819 b5bf 7b5b d2bf 238a 193f
00000030: 1610 33bf 9634 89bf 9d66 8abf e7d1 343f
00000040: a3cb 06be aa05 97bf d71a 99bf be88 31bf
00000050: 0978 0f3e b887 893e 86b6 f3bd 8c3e 7ebd
00000060: ab67 fb3e 28c5 e33e 110e 693e 5de3 ba3e
00000070: 43b0 14be e2af 96bb c800 763f 1893 123f
00000080: 4e92 5cbe 6940 ab3f 5b48 573f af32 d43e
00000090: dca8 f03f dcc6 da3f 7877 1640 a86e dd3f
000000a0: 748c 3240 b797 0f40 27ff 553f 0dd3 1d40
000000b0: 79a0 0540 93bb 693f 1ca5 193e c633 5d3f
000000c0: 56c2 fd3e 8575 433f a087 71be ae27 abbd
000000d0: cf94 633e 4ad1 e8be 96cd 173f 0f5e dc3e
000000e0: 34c0 ea3e 5d36 803f 7f2f da3f 212b a03f
000000f0: 62e2 df3f c1d9 1a40 f7c7 1a40 f8ac ff3f
00000100: 2486 883f 8dfd 823f 9bb8 cd3f 5539 cc3f
00000110: 3b14 cb3e 934a 9b3f adfd 603f e66d 253f

last_input f4 [4, 2, 3, 3]
-0.34420955 -0.20392685 0.70982444 0.30332837 0.32853812 0.48451725 0.42766356 0.41286027
0.42772466 -1.4148531 -1.6434168 0.59976405 -0.6994642 -1.0719173 -1.0812565 0.70632786
-0.13163619 -1.1798604 -1.1961316 -0.69349277 0.14010634 0.26861358 -0.11900048 -0.062071368
0.4910253 0.44486356 0.22759272 0.3650159 -0.14520364 -0.0045986036 0.9609494 0.572557
-0.21540186 1.3379031 0.8409478 0.4144492 1.8801532 1.7091937 2.3510418 1.7299395
2.7898226 2.243635 0.83592457 2.4660065 2.0879195 0.9130184 0.1500439 0.86407125
0.4956233 0.76351196 -0.23586893 -0.08357178 0.22224735 -0.45472175 0.59298074 0.4304051
0.45849764 1.001659 1.7045745 1.2513162 1.7490962 2.4195406 2.418455 1.9974661
1.0665936 1.0233628 1.6071962 1.5954996 0.39663872 1.2132133 0.8788708 0.64620817
00000000: 3c3c b0be 33d2 50be 0eb7 353f db4d 9b3e
00000010: 2636 a83e a512 f83e b8f6 da3e 6c62 d33e
00000020: bafe da3e e819 b5bf 7b5b d2bf 238a 193f
00000030: 1610 33bf 9634 89bf 9d66 8abf e7d1 343f
00000040: a3cb 06be aa05 97bf d71a 99bf be88 31bf
00000050: 0978 0f3e b887 893e 86b6 f3bd 8c3e 7ebd
00000060: ab67 fb3e 28c5 e33e 110e 693e 5de3 ba3e
00000070: 43b0 14be e2af 96bb c800 763f 1893 123f
00000080: 4e92 5cbe 6940 ab3f 5b48 573f af32 d43e
00000090: dca8 f03f dcc6 da3f 7877 1640 a86e dd3f
000000a0: 748c 3240 b797 0f40 27ff 553f 0dd3 1d40
000000b0: 79a0 0540 93bb 693f 1ca5 193e c633 5d3f
000000c0: 56c2 fd3e 8575 433f a087 71be ae27 abbd
000000d0: cf94 633e 4ad1 e8be 96cd 173f 0f5e dc3e
000000e0: 34c0 ea3e 5d36 803f 7f2f da3f 212b a03f
000000f0: 62e2 df3f c1d9 1a40 f7c7 1a40 f8ac ff3f
00000100: 2486 883f 8dfd 823f 9bb8 cd3f 5539 cc3f
00000110: 3b14 cb3e 934a 9b3f adfd 603f e66d 253f

v_mem f4 [4, 4, 64, 64]
0.0 0.0 0.0 0.0 0.0 0.0 0.0 0.0
0.0 0.0 0.0 0.0 0.0 0.0 0.0 0.0
0.0 0.0 0.0 0.0 0.0 0.0 0.0 0.0
0.0 0.0 0.0 0.0 0.0 0.0 0.0 0.0
0.0 0.0 0.0 0.0 0.0 0.0 0.0 0.0
0.0 0.0 0.0 0.0 0.0 0.0 0.0 0.0
0.0 0.0 0.0 0.0 0.0 0.0 0.0 0.0
0.0 0.0 0.0 0.0 0.0 0.0 0.0 0.0
0.0 0.0 0.0 0.0 0.0 0.0 0.0 0.0
0.0 0.0 0.0 -0.17020261 -0.47591752 0.0 0.0 0.0
0.0 0.0 0.0 0.0 0.0 0.0 0.0 0.0
0.0 0.0 0.0 0.0 0.0 0.0 0.0 0.0
0.0 0.0 0.0 0.0 0.0 0.0 0.0 0.0
0.92163587 0.3430395 0.0 0.0 0.0 0.0 0.0 0.0
0.0 0.0 0.0 0.0 0.0 0.0 0.0 0.0
0.0 0.0 0.0 0.0 0.6311989 0.46547198 0.0 0.0
0.0 0.0 0.0 0.0 0.0 0.0 0.0 0.0
0.0 0.0 0.0 0.0 0.0 0.0 0.0 0.0
0.0 0.0 0.0 0.0 0.0 0.0 0.0 0.0
0.0 0.0 0.0 0.0 0.0 0.0 0.0 0.0
0.0 0.0 -1.0 0.61257315 0.0 0.0 0.0 0.0
0.0 0.0 0.0 0.0 0.0 0.0 0.0 0.0
0.0 0.0 0.0 0.0 0.0 0.0 0.0 0.0
0.0 0.0 0.0 0.0 0.5075989 -1.0 0.0 0.0
0.0 0.0 0.0 0.0 0.0 0.0 0.0 0.0
0.0 0.0 0.0 0.0 0.0 0.0 0.0 0.0
0.0 0.0 0.0 0.0 0.0 0.0 0.0 0.0
0.0 -0.3448968 0.7442856 0.9639044 0.91355085 0.9863677 0.014025927 0.14045167
0.31476092 0.47043777 0.97104096 0.79510665 0.83681655 0.45473576 0.8171108 0.94557047
0.0 0.0 0.0 0.0 0.0 0.0 0.0 0.0
0.0 0.0 0.0 0.0 0.0 0.0 0.0 0.0
0.0 0.0 0.0 0.0 0.0 0.0 0.0 0.0
00000000: 0000 0000 0000 0000 0000 0000 0000 0000
00000010: 0000 0000 0000 0000 0000 0000 0000 0000
00000020: 0000 0000 0000 0000 0000 0000 0000 0000
00000030: 0000 0000 0000 0000 0000 0000 0000 0000
00000040: 0000 0000 0000 0000 0000 0000 0000 0000
00000050: 0000 0000 0000 0000 0000 0000 0000 0000
00000060: 0000 0000 0000 0000 0000 0000 0000 0000
00000070: 0000 0000 0000 0000 0000 0000 0000 0000
00000080: 0000 0000 0000 0000 0000 0000 0000 0000
00000090: 0000 0000 0000 0000 0000 0000 0000 0000
000000a0: 0000 0000 0000 0000 0000 0000 0000 0000
000000b0: 0000 0000 0000 0000 0000 0000 0000 0000
000000c0: 0000 0000 0000 0000 0000 0000 0000 0000
000000d0: 0000 0000 0000 0000 0000 0000 0000 0000
000000e0: 0000 0000 0000 0000 0000 0000 0000 0000
000000f0: 0000 0000 0000 0000 0000 0000 0000 0000
00000100: 0000 0000 0000 0000 0000 0000 0000 0000
00000110: 0000 0000 0000 0000 0000 0000 0000 0000
00000120: 0000 0000 0000 0000 0000 0000 9849 2ebe
00000130: 76ab f3be 0000 0000 0000 0000 0000 0000
00000140: 0000 0000 0000 0000 0000 0000 0000 0000
00000150: 0000 0000 0000 0000 0000 0000 0000 0000
00000160: 0000 0000 0000 0000 0000 0000 0000 0000
00000170: 0000 0000 0000 0000 0000 0000 0000 0000
00000180: 0000 0000 0000 0000 0000 0000 0000 0000
00000190: 0000 0000 0000 0000 0000 0000 0000 0000
000001a0: 54f0 6b3f e0a2 af3e 0000 0000 0000 0000
000001b0: 0000 0000 0000 0000 0000 0000 0000 0000
000001c0: 0000 0000 0000 0000 0000 0000 0000 0000
000001d0: 0000 0000 0000 0000 0000 0000 0000 0000
000001e0: 0000 0000 0000 0000 0000 0000 0000 0000
000001f0: 4096 213f 5852 ee3e 0000 0000 0000 0000
00000200: 0000 0000 0000 0000 0000 0000 0000 0000
00000210: 0000 0000 0000 0000 0000 0000 0000 0000
00000220: 0000 0000 0000 0000 0000 0000 0000 0000
00000230: 0000 0000 0000 0000 0000 0000 0000 0000
00000240: 0000 0000 0000 0000 0000 0000 0000 0000
00000250: 0000 0000 0000 0000 0000 0000 0000 0000
00000260: 0000 0000 0000 0000 0000 0000 0000 0000
00000270: 0000 0000 0000 0000 0000 0000 0000 0000
00000280: 0000 0000 0000 0000 0000 80bf 98d1 1c3f
00000290: 0000 0000 0000 0000 0000 0000 0000 0000
000002a0: 0000 0000 0000 0000 0000 0000 0000 0000
000002b0: 0000 0000 0000 0000 0000 0000 0000 0000
000002c0: 0000 0000 0000 0000 0000 0000 0000 0000
000002d0: 0000 0000 0000 0000 0000 0000 0000 0000
000002e0: 0000 0000 0000 0000 0000 0000 0000 0000
000002f0: 00f2 013f 0000 80bf 0000 0000 0000 0000
00000300: 0000 0000 0000 0000 0000 0000 0000 0000
00000310: 0000 0000 0000 0000 0000 0000 0000 0000
00000320: 0000 0000 0000 0000 0000 0000 0000 0000
00000330: 0000 0000 0000 0000 0000 0000 0000 0000
00000340: 0000 0000 0000 0000 0000 0000 0000 0000
00000350: 0000 0000 0000 0000 0000 0000 0000 0000
00000360: 0000 0000 5096 b0be 8089 3e3f 70c2 763f
00000370: 78de 693f 9882 7c3f 00cd 653c 90d2 0f3e
00000380: 5828 a13e 38dd f03e 2496 783f 1c8c 4b3f
00000390: 9c39 563f 20d3 e83e 2c2e 513f e810 723f
000003a0: 0000 0000 0000 0000 0000 0000 0000 0000
000003b0: 0000 0000 0000 0000 0000 0000 0000 0000
000003c0: 0000 0000 0000 0000 0000 0000 0000 0000
000003d0: 0000 0000 0000 0000 0000 0000 0000 0000
000003e0: 0000 0000 0000 0000 0000 0000 0000 0000
000003f0: 0000 0000 0000 0000 0000 0000 0000 0000

weight f4 [8, 4, 3, 3]
-0.07181142 -0.22308075 -0.15256932 -0.028504757 0.5850641 0.84438086 -1.0277109 0.37972543
0.61806864 0.28242615 0.6144591 0.31082273 0.055351984 -0.4461968 0.48973027 -0.047748763
-0.016258318 0.07733291 0.3104221 -0.21662346 -0.4636158 -0.12767564 0.14143252 0.5118739
-0.7925065 -0.2489552 0.4911089 0.29930595 0.4026938 0.09152662 -0.15845306 -0.25671658
0.13618046 -0.64427364 -0.33453494 0.053906742 -0.26612926 0.18528694 0.7282814 -0.7714188
-0.33482224 0.88416165 -0.23594393 0.06754061 0.69666064 0.5727737 0.012781397 0.36750895
-0.3227442 0.3858417 0.023467606 0.16610076 0.319145 0.80918145 -0.56406075 0.14776585
0.06308861 -0.7935767 -0.2980168 0.31356665 0.0855324 -0.13374583 -0.17071739 -0.13253818
-0.12889516 0.2653516 -0.46350417 -0.42819476 0.10917133 -0.073822655 0.24818178 -0.050259568
0.2770756 0.49205282 0.2939885 -0.06290088 1.0297076 0.7754716 -0.52726364 -0.11238625
-0.12786315 0.18179329 0.33009622 0.4436245 0.12747952 0.08986933 0.51159537 -0.2552267
0.15655984 -0.13561992 0.10574188 0.25595778 0.036166836 -0.2700519 0.15286762 0.22490844
-0.4902511 -0.24987626 -0.31148228 0.29032454 0.4381646 0.4239251 -0.0726943 -0.10121476
0.3225251 -0.62782705 -0.70820314 -0.21468319 -0.053075828 0.13981156 0.14024715 -0.24130023
-0.18168546 0.8832972 0.72391534 0.92564315 0.5232163 0.02982178 -0.038223863 0.4366715
-0.33653247 -0.011970757 0.44911084 0.31509563 0.7270686 0.48864323 0.25937977 -0.38795903
-0.2367068 -0.6662632 -0.6197185 0.57358754 0.12454035 0.2977585 0.009246301 0.26548418
-0.45028442 -0.17109346 -0.97875303 -0.13884407 0.6456143 0.08906709 0.40606874 -0.48966783
-0.3745653 -0.38733885 -0.75104314 0.43804228 0.109628655 0.24465369 0.24562791 0.17687342
0.25229797 0.028181482 0.15667701 -0.24313156 0.7146534 0.700579 0.49379632 0.45173448
0.14714397 0.5422107 0.0029498625 -0.37955058 -0.19619423 -0.23961262 -0.37521568 -0.5670409
0.42648938 0.11304049 0.4456327 -0.2331452 -0.29445487 -0.5725282 0.22404368 -0.072210416
-0.14309849 0.6018124 0.007331247 0.39248788 -0.032473344 0.40956342 0.010281113 -0.30942714
-0.1406922 0.033424556 0.048367303 -0.45480075 -0.103787355 -0.33004463 -0.046480853 0.00839912
0.4434011 0.62602586 0.23039255 0.76064813 -0.17789541 -0.14948644 0.084884614 0.28129634
0.33958146 -0.18316802 -0.05295852 0.14570728 0.22252965 -0.6250602 -0.26525062 -0.30062947
0.117788084 0.28092077 -0.27723408 0.24512145 0.2572529 0.55129 -0.5367998 0.1950774
-0.6818086 0.12688056 -0.85769254 0.9435821 1.0489665 0.032769006 0.08980651 0.6494568
0.1225597 -0.5145412 -0.19229844 -0.53082526 0.52469194 0.4208136 0.12435753 0.26284513
0.41535094 -0.06577077 -0.4643047 0.18419148 -0.9462348 0.3100807 0.5015288 -0.30619735
0.09944335 0.022437822 -0.302697 -0.32071757 0.08218289 -0.34545568 0.077644154 0.46946806
-0.3822682 0.12866089 0.15868776 0.030638944 -0.06155861 -0.6238032 0.16426751 0.15121153
00000000: de11 93bd 486f 64be 223b 1cbe cf82 e9bc
00000010: c3c6 153f 5829 583f 088c 83bf 5f6b c23e
00000020: bf39 1e3f 299a 903e 314d 1d3f 2824 9f3e
00000030: c3b8 623d e873 e4be edbd fa3e 3594 43bd
00000040: 2a30 85bc b760 9e3d a5ef 9e3e 8ad2 5dbe
00000050: 0d5f edbe 67bd 02be b0d3 103e 2b0a 033f
00000060: b5e1 4abf 1dee 7ebe a072 fb3e a13e 993e
00000070: e22d ce3e 4f72 bb3d 8541 22be 5b70 83be
00000080: e472 0b3e 1eef 24bf 2a48 abbe 51cd 5c3d
00000090: 1842 88be dcbb 3d3e a670 3a3f b47b 45bf
000000a0: d26d abbe 6b58 623f 499b 71be bb52 8a3d
000000b0: 5a58 323f 4ca1 123f 1169 513c 222a bc3e
000000c0: ba3e a5be 0b8d c53e 233f c03c 5116 2a3e
000000d0: f966 a33e 8426 4f3f 4966 10bf ee4f 173e
000000e0: 9a34 813d d827 4bbf a895 98be cf8b a03e
000000f0: 9c2b af3d abf4 08be 8ad0 2ebe 17b8 07be
00000100: 18fd 03be 2adc 873e 6b50 edbe 583c dbbe
00000110: 3895 df3d 5530 97bd 5d23 7e3e fadc 4dbd
00000120: dadc 8d3e 59ee fb3e a985 963e 2dd2 80bd
00000130: 75cd 833f 4f85 463f c0fa 06bf c32a e6bd
00000140: 8fee 02be 0528 3a3e 5f02 a93e c022 e33e
00000150: fe89 023e 690d b83d eaf7 023f 13ad 82be
00000160: 3951 203e f3df 0abe 338f d83d e60c 833e
00000170: ad23 143d 3e44 8abe 5489 1c3e 664e 663e
00000180: 3102 fbbe 90df 7fbe 9b7a 9fbe 6ba5 943e
00000190: 1c57 e03e b60c d93e c0e0 94bd af49 cfbd
000001a0: 0322 a53e 46b9 20bf cd4c 35bf e9d5 5bbe
000001b0: 0a66 59bd c32a 0f3e f39c 0f3e 6817 77be
000001c0: c10b 3abe c41f 623f 8452 393f f3f6 6c3f
000001d0: 81f1 053f ce4c f43c a090 1cbd 6893 df3e
000001e0: fc4d acbe fe20 44bc dbf1 e53e 3754 a13e
000001f0: 2b21 3a3f 722f fa3e 6dcd 843e 91a2 c6be
00000200: 4463 72be 3a90 2abf dfa5 1ebf a2d6 123f
00000210: 030f ff3d cd73 983e cc7d 173c 8bed 873e
00000220: ae8b e6be 2033 2fbe 8f8f 7abf 242d 0ebe
00000230: fb46 253f ce68 b63d 3ee8 cf3e beb5 fabe
00000240: 06c7 bfbe 4751 c6be 5d44 40bf 1447 e03e
00000250: fd84 e03d 7f86 7a3e e285 7b3e 4e1e 353e
00000260: 332d 813e dadc e63c f06f 203e 7bf7 78be
00000270: 86f3 363f 2559 333f dfd2 fc3e be49 e73e
00000280: e9ac 163e 52ce 0a3f 7b52 413b 7454 c2be
00000290: 24e7 48be 035d 75be 451c c0be 9829 11bf
000002a0: d15c da3e c681 e73d f829 e43e 9ebd 6ebe
000002b0: cac2 96be 3591 12bf b56b 653e 0ee3 93bd
000002c0: 6988 12be 6110 1a3f f53a f03b 2cf4 c83e
000002d0: c502 05bd 4cb2 d13e 1d72 283c 3c6d 9ebe
000002e0: 9e11 10be 30e8 083d cb1c 463d a5db e8be
000002f0: 778e d4bd 9cfb a8be b562 3ebd 769c 093c
00000300: 7805 e33e 3b43 203f 06ec 6b3e d6b9 423f
00000310: 372a 36be f912 19be fcd7 ad3d 1306 903e
00000320: 9fdd ad3e 6690 3bbe 08eb 58bd 4a34 153e
00000330: d0de 633e f203 20bf eece 87be 1bec 99be
00000340: e13a f13d d9d4 8f3e a0f1 8dbe 1e01 7b3e
00000350: a7b6 833e 5721 0d3f b66b 09bf 5fc2 473e
00000360: 028b 2ebf faec 013e bd91 5bbf 998e 713f
00000370: 8944 863f cb38 063d 7aec b73d cd42 263f
00000380: 9400 fb3d f9b8 03bf e2e9 44be 2ae4 07bf
00000390: 3652 063f e174 d73e 29af fe3d a393 863e
000003a0: e1a8 d43e d3b2 86bd 58b9 edbe b19c 3c3e
000003b0: 723c 72bf e6c2 9e3e 3164 003f e6c5 9cbe
000003c0: f5a8 cb3d 86cf b73c 1afb 9abe 1835 a4be
000003d0: 814f a83d 91df b0be e603 9f3d 1e5e f03e
000003e0: a8b8 c3be aebf 033e 0b7f 223e 86fe fa3c
000003f0: e224 7cbd 91b1 1fbf be35 283e 32d7 1a3e

last_input f4 [8, 4, 3, 3]
-0.07181142 -0.22308075 -0.15256932 -0.028504757 0.5850641 0.84438086 -1.0277109 0.37972543
0.61806864 0.28242615 0.6144591 0.31082273 0.055351984 -0.4461968 0.48973027 -0.047748763
-0.016258318 0.07733291 0.3104221 -0.21662346 -0.4636158 -0.12767564 0.14143252 0.5118739
-0.7925065 -0.2489552 0.4911089 0.29930595 0.4026938 0.09152662 -0.15845306 -0.25671658
0.13618046 -0.64427364 -0.33453494 0.053906742 -0.26612926 0.18528694 0.7282814 -0.7714188
-0.33482224 0.88416165 -0.23594393 0.06754061 0.69666064 0.5727737 0.012781397 0.36750895
-0.3227442 0.3858417 0.023467606 0.16610076 0.319145 0.80918145 -0.56406075 0.14776585
0.06308861 -0.7935767 -0.2980168 0.31356665 0.0855324 -0.13374583 -0.17071739 -0.13253818
-0.12889516 0.2653516 -0.46350417 -0.42819476 0.10917133 -0.073822655 0.24818178 -0.050259568
0.2770756 0.49205282 0.2939885 -0.06290088 1.0297076 0.7754716 -0.52726364 -0.11238625
-0.12786315 0.18179329 0.33009622 0.4436245 0.12747952 0.08986933 0.51159537 -0.2552267
0.15655984 -0.13561992 0.10574188 0.25595778 0.036166836 -0.2700519 0.15286762 0.22490844
-0.4902511 -0.24987626 -0.31148228 0.29032454 0.4381646 0.4239251 -0.0726943 -0.10121476
0.3225251 -0.62782705 -0.70820314 -0.21468319 -0.053075828 0.13981156 0.14024715 -0.24130023
-0.18168546 0.8832972 0.72391534 0.92564315 0.5232163 0.02982178 -0.038223863 0.4366715
-0.33653247 -0.011970757 0.44911084 0.31509563 0.7270686 0.48864323 0.25937977 -0.38795903
-0.2367068 -0.6662632 -0.6197185 0.57358754 0.12454035 0.2977585 0.009246301 0.26548418
-0.45028442 -0.17109346 -0.97875303 -0.13884407 0.6456143 0.08906709 0.40606874 -0.48966783
-0.3745653 -0.38733885 -0.75104314 0.43804228 0.109628655 0.24465369 0.24562791 0.17687342
0.25229797 0.028181482 0.15667701 -0.24313156 0.7146534 0.700579 0.49379632 0.45173448
0.14714397 0.5422107 0.0029498625 -0.37955058 -0.19619423 -0.23961262 -0.37521568 -0.5670409
0.42648938 0.11304049 0.4456327 -0.2331452 -0.29445487 -0.5725282 0.22404368 -0.072210416
-0.14309849 0.6018124 0.007331247 0.39248788 -0.032473344 0.40956342 0.010281113 -0.30942714
-0.1406922 0.033424556 0.048367303 -0.45480075 -0.103787355 -0.33004463 -0.046480853 0.00839912
0.4434011 0.62602586 0.23039255 0.76064813 -0.17789541 -0.14948644 0.084884614 0.28129634
0.33958146 -0.18316802 -0.05295852 0.14570728 0.22252965 -0.6250602 -0.26525062 -0.30062947
0.117788084 0.28092077 -0.27723408 0.24512145 0.2572529 0.55129 -0.5367998 0.1950774
-0.6818086 0.12688056 -0.85769254 0.9435821 1.0489665 0.032769006 0.08980651 0.6494568
0.1225597 -0.5145412 -0.19229844 -0.53082526 0.52469194 0.4208136 0.12435753 0.26284513
0.41535094 -0.06577077 -0.4643047 0.18419148 -0.9462348 0.3100807 0.5015288 -0.30619735
0.09944335 0.022437822 -0.302697 -0.32071757 0.08218289 -0.34545568 0.077644154 0.46946806
-0.3822682 0.12866089 0.15868776 0.030638944 -0.06155861 -0.6238032 0.16426751 0.15121153
00000000: de11 93bd 486f 64be 223b 1cbe cf82 e9bc
00000010: c3c6 153f 5829 583f 088c 83bf 5f6b c23e
00000020: bf39 1e3f 299a 903e 314d 1d3f 2824 9f3e
00000030: c3b8 623d e873 e4be edbd fa3e 3594 43bd
00000040: 2a30 85bc b760 9e3d a5ef 9e3e 8ad2 5dbe
00000050: 0d5f edbe 67bd 02be b0d3 103e 2b0a 033f
00000060: b5e1 4abf 1dee 7ebe a072 fb3e a13e 993e
00000070: e22d ce3e 4f72 bb3d 8541 22be 5b70 83be
00000080: e472 0b3e 1eef 24bf 2a48 abbe 51cd 5c3d
00000090: 1842 88be dcbb 3d3e a670 3a3f b47b 45bf
000000a0: d26d abbe 6b58 623f 499b 71be bb52 8a3d
000000b0: 5a58 323f 4ca1 123f 1169 513c 222a bc3e
000000c0: ba3e a5be 0b8d c53e 233f c03c 5116 2a3e
000000d0: f966 a33e 8426 4f3f 4966 10bf ee4f 173e
000000e0: 9a34 813d d827 4bbf a895 98be cf8b a03e
000000f0: 9c2b af3d abf4 08be 8ad0 2ebe 17b8 07be
00000100: 18fd 03be 2adc 873e 6b50 edbe 583c dbbe
00000110: 3895 df3d 5530 97bd 5d23 7e3e fadc 4dbd
00000120: dadc 8d3e 59ee fb3e a985 963e 2dd2 80bd
00000130: 75cd 833f 4f85 463f c0fa 06bf c32a e6bd
00000140: 8fee 02be 0528 3a3e 5f02 a93e c022 e33e
00000150: fe89 023e 690d b83d eaf7 023f 13ad 82be
00000160: 3951 203e f3df 0abe 338f d83d e60c 833e
00000170: ad23 143d 3e44 8abe 5489 1c3e 664e 663e
00000180: 3102 fbbe 90df 7fbe 9b7a 9fbe 6ba5 943e
00000190: 1c57 e03e b60c d93e c0e0 94bd af49 cfbd
000001a0: 0322 a53e 46b9 20bf cd4c 35bf e9d5 5bbe
000001b0: 0a66 59bd c32a 0f3e f39c 0f3e 6817 77be
000001c0: c10b 3abe c41f 623f 8452 393f f3f6 6c3f
000001d0: 81f1 053f ce4c f43c a090 1cbd 6893 df3e
000001e0: fc4d acbe fe20 44bc dbf1 e53e 3754 a13e
000001f0: 2b21 3a3f 722f fa3e 6dcd 843e 91a2 c6be
00000200: 4463 72be 3a90 2abf dfa5 1ebf a2d6 123f
00000210: 030f ff3d cd73 983e cc7d 173c 8bed 873e
00000220: ae8b e6be 2033 2fbe 8f8f 7abf 242d 0ebe
00000230: fb46 253f ce68 b63d 3ee8 cf3e beb5 fabe
00000240: 06c7 bfbe 4751 c6be 5d44 40bf 1447 e03e
00000250: fd84 e03d 7f86 7a3e e285 7b3e 4e1e 353e
00000260: 332d 813e dadc e63c f06f 203e 7bf7 78be
00000270: 86f3 363f 2559 333f dfd2 fc3e be49 e73e
00000280: e9ac 163e 52ce 0a3f 7b52 413b 7454 c2be
00000290: 24e7 48be 035d 75be 451c c0be 9829 11bf
000002a0: d15c da3e c681 e73d f829 e43e 9ebd 6ebe
000002b0: cac2 96be 3591 12bf b56b 653e 0ee3 93bd
000002c0: 6988 12be 6110 1a3f f53a f03b 2cf4 c83e
000002d0: c502 05bd 4cb2 d13e 1d72 283c 3c6d 9ebe
000002e0: 9e11 10be 30e8 083d cb1c 463d a5db e8be
000002f0: 778e d4bd 9cfb a8be b562 3ebd 769c 093c
00000300: 7805 e33e 3b43 203f 06ec 6b3e d6b9 423f
00000310: 372a 36be f912 19be fcd7 ad3d 1306 903e
00000320: 9fdd ad3e 6690 3bbe 08eb 58bd 4a34 153e
00000330: d0de 633e f203 20bf eece 87be 1bec 99be
00000340: e13a f13d d9d4 8f3e a0f1 8dbe 1e01 7b3e
00000350: a7b6 833e 5721 0d3f b66b 09bf 5fc2 473e
00000360: 028b 2ebf faec 013e bd91 5bbf 998e 713f
00000370: 8944 863f cb38 063d 7aec b73d cd42 263f
00000380: 9400 fb3d f9b8 03bf e2e9 44be 2ae4 07bf
00000390: 3652 063f e174 d73e 29af fe3d a393 863e
000003a0: e1a8 d43e d3b2 86bd 58b9 edbe b19c 3c3e
000003b0: 723c 72bf e6c2 9e3e 3164 003f e6c5 9cbe
000003c0: f5a8 cb3d 86cf b73c 1afb 9abe 1835 a4be
000003d0: 814f a83d 91df b0be e603 9f3d 1e5e f03e
000003e0: a8b8 c3be aebf 033e 0b7f 223e 86fe fa3c
000003f0: e224 7cbd 91b1 1fbf be35 283e 32d7 1a3e

v_mem f4 [4, 8, 32, 32]
0.0 0.0 0.0 0.0 0.6153331 0.76490307 -1.0 -1.0
0.0 0.0 0.0 0.10461211 0.5441059 0.45528746 0.31285286 -1.0
-0.7416354 -0.78970325 -1.0 -0.9541125 -1.0 -1.0 0.0 0.0
0.0 0.0 0.0 0.0 0.0 0.45359337 -1.0 -1.0
0.0 0.0 0.0 0.0 -1.0 -0.8978559 0.9049351 0.29927707
0.54190624 0.14527333 0.670769 -0.85332584 0.6531553 -0.51314443 -0.360097 0.25783157
-1.0 -0.699576 0.20470011 0.018848896 -0.849788 -1.0 -1.0 0.0
0.0 0.0 0.7678093 -1.0 -1.0 0.10033405 0.37969708 0.018742085
0.0 0.0 0.0 0.0 0.5241358 -1.0 -1.0 0.0
0.56382406 0.2547052 0.77800655 -0.34614283 -1.0 0.6406052 -1.0 -1.0
-0.71459717 -1.0 -1.0 -0.34207147 -0.86480916 -1.0 -1.0 -1.0
-1.0 0.0 0.83511734 -1.0 -1.0 -1.0 -1.0 0.96353936
0.0 0.0 0.0 0.0 0.025304079 0.5418285 -1.0 0.8636832
0.9956672 -0.9939915 0.23299313 0.1908108 -0.4472199 0.90769196 -1.0 -1.0
-0.9699576 -0.8798305 -0.52833426 -0.98798305 -1.0 -1.0 -1.0 -1.0
-1.0 -1.0 0.1346004 0.45684612 0.39102113 -1.0 0.0 0.0
0.71310866 -1.0 -1.0 0.0 -1.0 0.38677537 0.6724622 0.07318139
0.5152695 -1.0 -0.25795275 0.2860775 0.43047607 -0.14379168 -0.8678134 0.6463233
-0.7506481 -1.0 -1.0 -0.9699576 -1.0 -1.0 -1.0 -1.0
-1.0 -1.0 -0.9759661 0.3864957 0.6649895 -1.0 0.0 0.0
0.13356304 -0.042344034 -0.77688015 0.0 0.0 0.65963984 0.866457 0.36392486
0.21269321 0.730077 -1.0 0.5832343 0.44130552 -0.849788 -0.72060573 0.14117002
0.32050836 -0.74163544 -0.2094732 -0.78970325 -1.0 -1.0 -1.0 -1.0
-1.0 -1.0 -1.0 -1.0 0.4653523 0.8608117 0.0 0.0
-1.0 0.08203614 0.69213104 0.2574842 -0.6549988 0.1525209 0.109894514 -1.0
0.026916265 0.3984704 -0.7176015 -0.59442765 0.74211276 -0.3811267 -1.0 -1.0
0.738163 0.5381706 -0.6515082 -0.5455365 -1.0 -0.9549364 -0.9128773 -1.0
-1.0 -1.0 -1.0 -0.09853363 -1.0 -1.0 -0.20095378 -0.4322794
0.0 0.0 0.0 0.5208285 0.06657207 0.49351883 0.850461 0.3041768
-0.8493763 0.11008954 -0.5193217 -1.0 -0.17984247 -0.25194442 -1.0 -1.0
0.9978194 -0.2188977 0.7384343 -0.11893427 -0.936911 -1.0 -1.0 -1.0
-1.0 -1.0 -1.0 -1.0 -1.0 -1.0 -0.062297344 -0.09145415
00000000: 0000 0000 0000 0000 0000 0000 0000 0000
00000010: 7886 1d3f b0d0 433f 0000 80bf 0000 80bf
00000020: 0000 0000 0000 0000 0000 0000 e03e d63d
00000030: 864a 0b3f 701b e93e 402e a03e 0000 80bf
00000040: d1db 3dbf fe29 4abf 0000 80bf b840 74bf
00000050: 0000 80bf 0000 80bf 0000 0000 0000 0000
00000060: 0000 0000 0000 0000 0000 0000 0000 0000
00000070: 0000 0000 643d e83e 0000 80bf 0000 80bf
00000080: 0000 0000 0000 0000 0000 0000 0000 0000
00000090: 0000 80bf e2d9 65bf d4a9 673f d83a 993e
000000a0: 5eba 0a3f 88c2 143e 84b7 2b3f 9073 5abf
000000b0: 3035 273f 6f5d 03bf a25e b8be 8002 843e
000000c0: 0000 80bf 6a17 33bf e89c 513e 0069 9a3c
000000d0: b58b 59bf 0000 80bf 0000 80bf 0000 0000
000000e0: 0000 0000 0000 0000 268f 443f 0000 80bf
000000f0: 0000 80bf f07b cd3d a867 c23e 0089 993c
00000100: 0000 0000 0000 0000 0000 0000 0000 0000
00000110: c42d 063f 0000 80bf 0000 80bf 0000 0000
00000120: c656 103f b868 823e 702b 473f a239 b1be
00000130: 0000 80bf b4fe 233f 0000 80bf 0000 80bf
00000140: d7ef 36bf 0000 80bf 0000 80bf fe23 afbe
00000150: 2264 5dbf 0000 80bf 0000 80bf 0000 80bf
00000160: 0000 80bf 0000 0000 40ca 553f 0000 80bf
00000170: 0000 80bf 0000 80bf 0000 80bf 84aa 763f
00000180: 0000 0000 0000 0000 0000 0000 0000 0000
00000190: 804a cf3c 46b5 0a3f 0000 80bf 581a 5d3f
000001a0: 0ce4 7e3f 3a76 7ebf c095 6e3e e863 433e
000001b0: 02fa e4be 805e 683f 0000 80bf 0000 80bf
000001c0: 244f 78bf 923c 61bf ea40 07bf 75ec 7cbf
000001d0: 0000 80bf 0000 80bf 0000 80bf 0000 80bf
000001e0: 0000 80bf 0000 80bf b0d4 093e bce7 e93e
000001f0: ec33 c83e 0000 80bf 0000 0000 0000 0000
00000200: 4a8e 363f 0000 80bf 0000 80bf 0000 0000
00000210: 0000 80bf 6c07 c63e 7c26 2c3f 20e0 953d
00000220: b4e8 033f 0000 80bf 6212 84be c078 923e
00000230: 5c67 dc3e 203e 13be 0529 5ebf 7275 253f
00000240: 792a 40bf 0000 80bf 0000 80bf 244f 78bf
00000250: 0000 80bf 0000 80bf 0000 80bf 0000 80bf
00000260: 0000 80bf 0000 80bf ead8 79bf c4e2 c53e
00000270: c03c 2a3f 0000 80bf 0000 0000 0000 0000
00000280: c0c4 083e f070 2dbd 9ee1 46bf 0000 0000
00000290: 0000 0000 28de 283f 20d0 5d3f 5c54 ba3e
000002a0: 40cc 593e 54e6 3a3f 0000 80bf d84e 153f
000002b0: ccf2 e13e b58b 59bf 9e79 38bf e08e 103e
000002c0: ac19 a43e d2db 3dbf 2480 56be fe29 4abf
000002d0: 0000 80bf 0000 80bf 0000 80bf 0000 80bf
000002e0: 0000 80bf 0000 80bf 0000 80bf 0000 80bf
000002f0: a842 ee3e 285e 5c3f 0000 0000 0000 0000
00000300: 0000 80bf 9002 a83d 802f 313f f8d4 833e
00000310: 00ae 27bf 702e 1c3e 6010 e13d 0000 80bf
00000320: 807f dc3c 5004 cc3e bbb4 37bf 692c 18bf
00000330: 1afb 3d3f 0a23 c3be 0000 80bf 0000 80bf
00000340: 40f8 3c3f 8cc5 093f 3ec9 26bf 48a8 0bbf
00000350: 0000 80bf b676 74bf 54b2 69bf 0000 80bf
00000360: 0000 80bf 0000 80bf 0000 80bf 00cc c9bd
00000370: 0000 80bf 0000 80bf d4c6 4dbe ba53 ddbe
00000380: 0000 0000 0000 0000 0000 0000 0455 053f
00000390: f056 883d 80ae fc3e d0b7 593f 10bd 9b3e
000003a0: ba70 59bf a076 e13d 44f2 04bf 0000 80bf
000003b0: a028 38be dcfe 80be 0000 80bf 0000 80bf
000003c0: 1871 7f3f b826 60be 080a 3d3f d093 f3bd
000003d0: 66d9 6fbf 0000 80bf 0000 80bf 0000 80bf
000003e0: 0000 80bf 0000 80bf 0000 80bf 0000 80bf
000003f0: 0000 80bf 0000 80bf 802b 7fbd 504c bbbd

weight f4 [16, 8, 3, 3]
-0.45899054 -0.28363878 -0.3357006 -0.43470994 -0.07240504 -0.096608035 0.24151535 -0.36982098
0.50474817 -0.6029401 0.0586475 0.061977606 -0.1256686 -0.13140398 0.6238758 -0.14468342
-0.01010309 0.07432599 -0.59451085 -0.5089861 -0.48690838 -0.39297384 0.008147846 0.11812934
0.017764986 0.0002912858 0.50023425 0.3850026 0.30942008 0.13908526 -0.27733955 -0.11954511
0.33836654 0.19529815 0.19434744 -0.17368184 -0.08255104 0.14997381 0.014479094 -0.08123018
-0.15820126 0.14884865 -0.4078044 0.34138393 -0.054985117 -0.44344166 -0.28467268 -0.1441292
-0.041162927 -0.05767729 -0.5208103 -0.1374064 0.06492485 0.26281467 -0.11467649 -0.17066312
0.3566823 0.2580224 -0.036517046 0.56652695 -0.15170254 0.204313 0.48031643 -0.38035798
-0.17188354 0.36927962 0.16952495 -0.17704648 0.16865034 -0.288122 0.13365437 -0.25864905
-0.3863127 0.37303028 -0.525536 0.5907746 0.11121012 -0.063675225 -0.1937266 -0.00860171
0.22058424 0.7258335 0.030263668 0.16508955 -0.025377758 0.14635968 -0.101508826 0.073548965
-0.265028 -0.9043159 -0.7405908 0.21618497 -0.54207355 0.30978096 0.32499063 0.17693034
0.36149064 0.23093735 0.45952863 0.6743736 -0.17351669 0.566292 -0.2994102 0.12970449
-0.31488532 -0.24858466 -0.38659558 -0.7420037 0.031003226 -0.1876425 -0.4987609 0.22501297
0.45235422 -0.33747196 -0.1392362 -0.55057657 -0.9985434 0.13172585 0.12576114 0.01242208
0.061545815 0.20161961 -0.08665528 -0.102087446 0.042944856 -0.22169577 0.35600403 -0.02692812
-0.12303062 0.15570587 0.005084683 0.23422232 -0.1900987 -0.37884745 -0.5179419 -0.3571902
0.32735318 -0.22451968 0.5964666 0.13487887 -0.19289678 0.50808674 -0.39273795 -0.31201062
0.117795296 -0.45019087 0.20438817 0.2072297 0.6028227 0.32113516 0.14473121 -0.08424364
0.038035523 0.16089313 -0.32030156 0.15198003 -0.013614721 -0.13528945 -0.46666828 -0.074869365
-0.02944891 -0.06555121 -0.15358596 -0.056156993 0.1842328 0.062131684 0.33359233 -0.06320428
-0.18165642 0.18094088 0.4163834 -0.0061578513 -0.2605166 -0.17055 0.06849903 0.24183036
0.028544784 0.15990771 0.11840769 -0.49160826 -0.31388408 -0.04668588 -0.4777326 -0.086738445
0.20629615 0.12022787 0.095030166 0.071472816 -0.046275746 -0.14448138 -0.092190444 0.20269729
-0.15535486 -0.10997362 -0.31224316 -0.033195645 0.12940216 0.22587436 -0.5785808 0.050053447
-0.3828859 0.29256588 0.102391444 -0.23794107 0.164187 0.12345357 -0.028593913 -0.34340918
-0.115072235 -0.35586864 -0.09874248 0.44665867 -0.132151 -0.05427832 -0.33076376 -0.30834505
-0.15093833 -0.049841326 -0.13755865 0.4793788 0.056798354 -0.075083844 0.0075101433 0.05251048
0.008489364 0.6831733 -0.33625022 0.18211181 0.52336484 -0.089947656 -0.16254391 0.34245032
0.15054722 0.15221295 -0.05047352 0.1174906 -0.07357055 0.4439555 0.05744211 -0.005443468
0.3388173 -0.15133026 0.05663415 0.09771427 -0.44772288 0.41110814 -0.10376937 -0.16548155
-0.07586378 0.110733636 -0.16008782 0.20959574 -0.4418249 0.3799627 -0.535069 -0.03678565
00000000: cf00 ebbe 1a39 91be f3e0 abbe 4d92 debe
00000010: 1849 94bd 6fda c5bd cd4f 773e 2d59 bdbe
00000020: 2d37 013f 485a 1abf 5c38 703d 3bdc 7d3d
00000030: 45af 00be c48e 06be 53b6 1f3f e427 14be
00000040: 6e87 25bc 3a38 983d dd31 18bf ea4c 02bf
00000050: 0e4c f9be de33 c9be 8b7e 053c cced f13d
00000060: e087 913c b8b7 9839 5a0f 003f 101f c53e
00000070: 4f6c 9e3e 5e6c 0e3e 73ff 8dbe 11d4 f4bd
00000080: 613e ad3e 3dfc 473e 0403 473e a7d9 31be
00000090: 8510 a9bd bc92 193e b939 6d3c 025c a6bd
000000a0: 83ff 21be c86b 183e bdcb d0be e0c9 ae3e
000000b0: 1338 61bd c90a e3be 9ec0 91be 9b96 13be
000000c0: 759a 28bd 063f 6cbd d353 05bf 43b4 0cbe
000000d0: 52f7 843d a58f 863e 82db eabd 50c2 2ebe
000000e0: 109f b63e 831b 843e e692 15bd e907 113f
000000f0: e957 1bbe 6d37 513e 09ec f53e 48be c2be
00000100: 3d02 30be 3812 bd3e f397 2d3e ac4b 35be
00000110: adb2 2c3e ba84 93be b1dc 083e a66d 84be
00000120: c7ca c5be d3fd be3e 8789 06bf 013d 173f
00000130: 22c2 e33d 2868 82bd 4460 46be 30ee 0cbc
00000140: d6e0 613e 39d0 393f 83eb f73c 3c0d 293e
00000150: 04e5 cfbc 50df 153e dce3 cfbd d7a0 963d
00000160: c0b1 87be 3f81 67bf 5c97 3dbf 985f 5d3e
00000170: 55c5 0abf 9c9b 9e3e 2c65 a63e 3a2d 353e
00000180: 4d15 b93e d77a 6c3e 5647 eb3e c0a3 2c3f
00000190: 5cae 31be 83f8 103f 4b4c 99be 41d1 043e
000001a0: a638 a1be fa8c 7ebe dbef c5be f4f3 3dbf
000001b0: 7afa fd3c 5b25 40be 975d ffbe cd69 663e
000001c0: f99a e73e 20c9 acbe ef93 0ebe 96f2 0cbf
000001d0: 8aa0 7fbf 24e3 063e 87c7 003e fb85 4b3c
000001e0: 7717 7c3d 5f75 4e3e 5378 b1bd 3913 d1bd
000001f0: f2e6 2f3d 3704 63be 2946 b63e 5c98 dcbc
00000200: 7af7 fbbd 5c71 1f3e 6a9d a63b fad7 6f3e
00000210: 3ca9 42be 4bf8 c1be d797 04bf a2e1 b6be
00000220: d69a a73e 7de8 65be 09b2 183f b01d 0a3e
00000230: bc86 45be f911 023f f314 c9be dbbf 9fbe
00000240: a93e f13d 6b7f e6be 224b 513e 0634 543e
00000250: 9752 1a3f d46b a43e 6b34 143e ee87 acbd
00000260: 23cb 1b3d 2bc1 243e 91fe a3be a7a0 1b3e
00000270: 4710 5fbc 5189 0abe 25ef eebe 1c55 99bd
00000280: d73e f1bc b63f 86bd a345 1dbe e004 66bd
00000290: 86a7 3c3e cb7d 7e3d 9dcc aa3e 3f71 81bd
000002a0: 2404 3abe 9148 393e 3430 d53e cdc7 c9bb
000002b0: 6f62 85be a9a4 2ebe 3849 8c3d 61a2 773e
000002c0: c0d6 e93c d9be 233e bb7f f23d 14b4 fbbe
000002d0: 6ab5 a0be b139 3fbd 5e99 f4be eda3 b1bd
000002e0: 4c3f 533e 083a f63d 2d9f c23d 5760 923d
000002f0: a38b 3dbd edf2 13be 58ce bcbd e18f 4f3e
00000300: 5815 1fbe d939 e1bd 56de 9fbe 28f8 07bd
00000310: 0082 043e 9c4b 673e df1d 14bf d804 4d3d
00000320: 9f09 c4be 32cb 953e 9bb2 d13d d3a6 73be
00000330: a320 283e 3ad5 fc3d c83d eabc 54d3 afbe
00000340: feaa ebbd 6a34 b6be 7f39 cabd 72b0 e43e
00000350: 9752 07be f252 5ebd de59 a9be 67df 9dbe
00000360: 948f 1abe 6b26 4cbd 2ddc 0cbe 2371 f53e
00000370: 64a5 683d 8fc5 99bd a617 f63b 3b15 573d
00000380: f916 0b3c 72e4 2e3f fd28 acbe 857b 3a3e
00000390: 3dfb 053f 7a36 b8bd e971 26be a655 af3e
000003a0: 0d29 1a3e b6dd 1b3e 52bd 4ebd e99e f03d
000003b0: 28ac 96bd 234e e33e 6b48 6b3d 1f5f b2bb
000003c0: 7679 ad3e 52f6 1abe 36f9 673d 6b1e c83d
000003d0: ef3b e5be c47c d23e 0985 d4bd ff73 29be
000003e0: 785e 9bbd 51c8 e23d 10ee 23be 44a0 563e
000003f0: e036 e2be 798a c23e 48fa 08bf 8dac 16bd

last_input f4 [16, 8, 3, 3]
-0.45899054 -0.28363878 -0.3357006 -0.43470994 -0.07240504 -0.096608035 0.24151535 -0.36982098
0.50474817 -0.6029401 0.0586475 0.061977606 -0.1256686 -0.13140398 0.6238758 -0.14468342
-0.01010309 0.07432599 -0.59451085 -0.5089861 -0.48690838 -0.39297384 0.008147846 0.11812934
0.017764986 0.0002912858 0.50023425 0.3850026 0.30942008 0.13908526 -0.27733955 -0.11954511
0.33836654 0.19529815 0.19434744 -0.17368184 -0.08255104 0.14997381 0.014479094 -0.08123018
-0.15820126 0.14884865 -0.4078044 0.34138393 -0.054985117 -0.44344166 -0.28467268 -0.1441292
-0.041162927 -0.05767729 -0.5208103 -0.1374064 0.06492485 0.26281467 -0.11467649 -0.17066312
0.3566823 0.2580224 -0.036517046 0.56652695 -0.15170254 0.204313 0.48031643 -0.38035798
-0.17188354 0.36927962 0.16952495 -0.17704648 0.16865034 -0.288122 0.13365437 -0.25864905
-0.3863127 0.37303028 -0.525536 0.5907746 0.11121012 -0.063675225 -0.1937266 -0.00860171
0.22058424 0.7258335 0.030263668 0.16508955 -0.025377758 0.14635968 -0.101508826 0.073548965
-0.265028 -0.9043159 -0.7405908 0.21618497 -0.54207355 0.30978096 0.32499063 0.17693034
0.36149064 0.23093735 0.45952863 0.6743736 -0.17351669 0.566292 -0.2994102 0.12970449
-0.31488532 -0.24858466 -0.38659558 -0.7420037 0.031003226 -0.1876425 -0.4987609 0.22501297
0.45235422 -0.33747196 -0.1392362 -0.55057657 -0.9985434 0.13172585 0.12576114 0.01242208
0.061545815 0.20161961 -0.08665528 -0.102087446 0.042944856 -0.22169577 0.35600403 -0.02692812
-0.12303062 0.15570587 0.005084683 0.23422232 -0.1900987 -0.37884745 -0.5179419 -0.3571902
0.32735318 -0.22451968 0.5964666 0.13487887 -0.19289678 0.50808674 -0.39273795 -0.31201062
0.117795296 -0.45019087 0.20438817 0.2072297 0.6028227 0.32113516 0.14473121 -0.08424364
0.038035523 0.16089313 -0.32030156 0.15198003 -0.013614721 -0.13528945 -0.46666828 -0.074869365
-0.02944891 -0.06555121 -0.15358596 -0.056156993 0.1842328 0.062131684 0.33359233 -0.06320428
-0.18165642 0.18094088 0.4163834 -0.0061578513 -0.2605166 -0.17055 0.06849903 0.24183036
0.028544784 0.15990771 0.11840769 -0.49160826 -0.31388408 -0.04668588 -0.4777326 -0.086738445
0.20629615 0.12022787 0.095030166 0.071472816 -0.046275746 -0.14448138 -0.092190444 0.20269729
-0.15535486 -0.10997362 -0.31224316 -0.033195645 0.12940216 0.22587436 -0.5785808 0.050053447
-0.3828859 0.29256588 0.102391444 -0.23794107 0.164187 0.12345357 -0.028593913 -0.34340918
-0.115072235 -0.35586864 -0.09874248 0.44665867 -0.132151 -0.05427832 -0.33076376 -0.30834505
-0.15093833 -0.049841326 -0.13755865 0.4793788 0.056798354 -0.075083844 0.0075101433 0.05251048
0.008489364 0.6831733 -0.33625022 0.18211181 0.52336484 -0.089947656 -0.16254391 0.34245032
0.15054722 0.15221295 -0.05047352 0.1174906 -0.07357055 0.4439555 0.05744211 -0.005443468
0.3388173 -0.15133026 0.05663415 0.09771427 -0.44772288 0.41110814 -0.10376937 -0.16548155
-0.07586378 0.110733636 -0.16008782 0.20959574 -0.4418249 0.3799627 -0.535069 -0.03678565
00000000: cf00 ebbe 1a39 91be f3e0 abbe 4d92 debe
00000010: 1849 94bd 6fda c5bd cd4f 773e 2d59 bdbe
00000020: 2d37 013f 485a 1abf 5c38 703d 3bdc 7d3d
00000030: 45af 00be c48e 06be 53b6 1f3f e427 14be
00000040: 6e87 25bc 3a38 983d dd31 18bf ea4c 02bf
00000050: 0e4c f9be de33 c9be 8b7e 053c cced f13d
00000060: e087 913c b8b7 9839 5a0f 003f 101f c53e
00000070: 4f6c 9e3e 5e6c 0e3e 73ff 8dbe 11d4 f4bd
00000080: 613e ad3e 3dfc 473e 0403 473e a7d9 31be
00000090: 8510 a9bd bc92 193e b939 6d3c 025c a6bd
000000a0: 83ff 21be c86b 183e bdcb d0be e0c9 ae3e
000000b0: 1338 61bd c90a e3be 9ec0 91be 9b96 13be
000000c0: 759a 28bd 063f 6cbd d353 05bf 43b4 0cbe
000000d0: 52f7 843d a58f 863e 82db eabd 50c2 2ebe
000000e0: 109f b63e 831b 843e e692 15bd e907 113f
000000f0: e957 1bbe 6d37 513e 09ec f53e 48be c2be
00000100: 3d02 30be 3812 bd3e f397 2d3e ac4b 35be
00000110: adb2 2c3e ba84 93be b1dc 083e a66d 84be
00000120: c7ca c5be d3fd be3e 8789 06bf 013d 173f
00000130: 22c2 e33d 2868 82bd 4460 46be 30ee 0cbc
00000140: d6e0 613e 39d0 393f 83eb f73c 3c0d 293e
00000150: 04e5 cfbc 50df 153e dce3 cfbd d7a0 963d
00000160: c0b1 87be 3f81 67bf 5c97 3dbf 985f 5d3e
00000170: 55c5 0abf 9c9b 9e3e 2c65 a63e 3a2d 353e
00000180: 4d15 b93e d77a 6c3e 5647 eb3e c0a3 2c3f
00000190: 5cae 31be 83f8 103f 4b4c 99be 41d1 043e
000001a0: a638 a1be fa8c 7ebe dbef c5be f4f3 3dbf
000001b0: 7afa fd3c 5b25 40be 975d ffbe cd69 663e
000001c0: f99a e73e 20c9 acbe ef93 0ebe 96f2 0cbf
000001d0: 8aa0 7fbf 24e3 063e 87c7 003e fb85 4b3c
000001e0: 7717 7c3d 5f75 4e3e 5378 b1bd 3913 d1bd
000001f0: f2e6 2f3d 3704 63be 2946 b63e 5c98 dcbc
00000200: 7af7 fbbd 5c71 1f3e 6a9d a63b fad7 6f3e
00000210: 3ca9 42be 4bf8 c1be d797 04bf a2e1 b6be
00000220: d69a a73e 7de8 65be 09b2 183f b01d 0a3e
00000230: bc86 45be f911 023f f314 c9be dbbf 9fbe
00000240: a93e f13d 6b7f e6be 224b 513e 0634 543e
00000250: 9752 1a3f d46b a43e 6b34 143e ee87 acbd
00000260: 23cb 1b3d 2bc1 243e 91fe a3be a7a0 1b3e
00000270: 4710 5fbc 5189 0abe 25ef eebe 1c55 99bd
00000280: d73e f1bc b63f 86bd a345 1dbe e004 66bd
00000290: 86a7 3c3e cb7d 7e3d 9dcc aa3e 3f71 81bd
000002a0: 2404 3abe 9148 393e 3430 d53e cdc7 c9bb
000002b0: 6f62 85be a9a4 2ebe 3849 8c3d 61a2 773e
000002c0: c0d6 e93c d9be 233e bb7f f23d 14b4 fbbe
000002d0: 6ab5 a0be b139 3fbd 5e99 f4be eda3 b1bd
000002e0: 4c3f 533e 083a f63d 2d9f c23d 5760 923d
000002f0: a38b 3dbd edf2 13be 58ce bcbd e18f 4f3e
00000300: 5815 1fbe d939 e1bd 56de 9fbe 28f8 07bd
00000310: 0082 043e 9c4b 673e df1d 14bf d804 4d3d
00000320: 9f09 c4be 32cb 953e 9bb2 d13d d3a6 73be
00000330: a320 283e 3ad5 fc3d c83d eabc 54d3 afbe
00000340: feaa ebbd 6a34 b6be 7f39 cabd 72b0 e43e
00000350: 9752 07be f252 5ebd de59 a9be 67df 9dbe
00000360: 948f 1abe 6b26 4cbd 2ddc 0cbe 2371 f53e
00000370: 64a5 683d 8fc5 99bd a617 f63b 3b15 573d
00000380: f916 0b3c 72e4 2e3f fd28 acbe 857b 3a3e
00000390: 3dfb 053f 7a36 b8bd e971 26be a655 af3e
000003a0: 0d29 1a3e b6dd 1b3e 52bd 4ebd e99e f03d
000003b0: 28ac 96bd 234e e33e 6b48 6b3d 1f5f b2bb
000003c0: 7679 ad3e 52f6 1abe 36f9 673d 6b1e c83d
000003d0: ef3b e5be c47c d23e 0985 d4bd ff73 29be
000003e0: 785e 9bbd 51c8 e23d 10ee 23be 44a0 563e
000003f0: e036 e2be 798a c23e 48fa 08bf 8dac 16bd

v_mem f4 [4, 16, 8, 8]
0.0 -1.0 -0.50175196 0.14892995 0.34077883 -1.0 -1.0 -1.0
-1.0 -0.73978615 0.9035784 0.54159784 0.058276772 0.5839639 -1.0 -1.0
0.8819835 0.47008276 0.59676075 -0.35206372 -0.73483807 -1.0 -1.0 -1.0
0.09018564 -0.21306783 -1.0 -1.0 -0.61081064 -0.84603506 -1.0 0.3504125
0.7916032 -0.07402921 -0.14250004 -0.9037719 -0.7989901 0.107693076 -1.0 -1.0
0.35729313 -0.523136 -0.98930794 -0.6364714 0.2616577 -0.4269079 -1.0 -1.0
-1.0 -1.0 -1.0 0.16756833 -1.0 -0.9401247 -1.0 -1.0
-1.0 -1.0 -1.0 -1.0 -1.0 -0.95081675 -1.0 0.3591993
0.0 -1.0 -1.0 -1.0 -1.0 -0.9080486 -1.0 0.77378726
-1.0 -1.0 -1.0 -1.0 0.30110192 -0.9230175 -0.7476683 -1.0
-1.0 -1.0 -1.0 -0.2358169 -0.30074203 0.09135854 0.1827172 0.75160754
-1.0 -0.9444015 -0.5124441 -0.92087907 -0.98930794 -1.0 -1.0 -1.0
-1.0 -0.82892776 -0.8823878 0.41520977 -1.0 -1.0 0.1568762 -1.0
-1.0 -1.0 -0.92729425 -0.72842276 0.047817707 0.29896355 0.64657044 -1.0
-0.9978616 -0.8695574 -0.5637657 -1.0 -0.059515 -0.91018707 -0.20492667 -1.0
-1.0 -1.0 -0.4910599 -0.49788857 0.05905044 0.6432471 -1.0 -1.0
0.0 -1.0 -1.0 -1.0 -0.15960741 0.1403501 0.38425672 0.5904852
-1.0 -1.0 -1.0 -1.0 -0.35693324 0.13335371 0.06313765 0.18584728
-1.0 -1.0 -0.43973827 -0.92301744 -1.0 -0.5423817 -0.7177306 0.35278296
-1.0 -0.5937034 -1.0 -0.9080486 -1.0 -1.0 -0.79043645 -1.0
-0.91232544 -0.8866646 -1.0 -0.87169594 -1.0 -0.6664091 -0.10887843 0.1833098
0.70083106 0.53204966 -1.0 -1.0 -0.45043033 -0.634333 -0.93370944 -1.0
0.49026752 -0.9671509 -1.0 0.05209446 -0.35420215 -1.0 -0.64288664 -1.0
0.2891109 0.27392018 -1.0 -1.0 -1.0 -0.9593703 -1.0 -1.0
0.0 -0.96150875 0.6722317 -0.77897096 0.5594629 -0.6963465 -1.0 0.57739186
-0.9871696 -0.94012475 -0.989308 -1.0 -0.64074826 -0.10187054 -1.0 -1.0
0.22058749 -0.57445776 -0.36917102 -0.5830114 -0.93157107 0.55248094 0.10846591 -1.0
-0.6428867 -0.21306777 0.03789854 -0.8823878 -1.0 -1.0 -0.010511816 -1.0
-0.94653994 -0.98289275 -0.60148424 -1.0 -0.98289275 -0.74339163 0.79839706 -1.0
-0.94012475 -0.9529551 -0.96578556 -0.7818828 -1.0 -1.0 -1.0 -1.0
-0.99786156 -1.0 -0.3191427 -0.9743391 -1.0 -1.0 0.44550776 -1.0
-0.98289275 -1.0 -1.0 -1.0 0.32153332 0.25678837 -1.0 -1.0
00000000: 0000 0000 0000 80bf d172 00bf 1881 183e
00000010: 907a ae3e 0000 80bf 0000 80bf 0000 80bf
00000020: 0000 80bf a062 3dbf ea50 673f 28a6 0a3f
00000030: a0b3 6e3d a87e 153f 0000 80bf 0000 80bf
00000040: acc9 613f b0ae f03e 50c5 183f b241 b4be
00000050: 591e 3cbf 0000 80bf 0000 80bf 0000 80bf
00000060: 40b3 b83d 742e 5abe 0000 80bf 0000 80bf
00000070: 165e 1cbf c195 58bf 0000 80bf 4469 b33e
00000080: 82a6 4a3f a09c 97bd 88eb 11be 985d 67bf
00000090: 9d8a 4cbf 308e dc3d 0000 80bf 0000 80bf
000000a0: 20ef b63e 3eec 05bf 4943 7dbf caef 22bf
000000b0: 00f8 853e ac93 dabe 0000 80bf 0000 80bf
000000c0: 0000 80bf 0000 80bf 0000 80bf 0897 2b3e
000000d0: 0000 80bf 03ac 70bf 0000 80bf 0000 80bf
000000e0: 0000 80bf 0000 80bf 0000 80bf 0000 80bf
000000f0: 0000 80bf ba68 73bf 0000 80bf f8e8 b73e
00000100: 0000 0000 0000 80bf 0000 80bf 0000 80bf
00000110: 0000 80bf e075 68bf 0000 80bf ec16 463f
00000120: 0000 80bf 0000 80bf 0000 80bf 0000 80bf
00000130: 082a 9a3e e04a 6cbf 3167 3fbf 0000 80bf
00000140: 0000 80bf 0000 80bf 0000 80bf fc79 71be
00000150: dcfa 99be 301a bb3d 381a 3b3e 5a69 403f
00000160: 0000 80bf 4cc4 71bf 892f 03bf bbbe 6bbf
00000170: 4943 7dbf 0000 80bf 0000 80bf 0000 80bf
00000180: 0000 80bf 9c34 54bf 2be4 61bf 6096 d43e
00000190: 0000 80bf 0000 80bf 28a4 203e 0000 80bf
000001a0: 0000 80bf 0000 80bf 2863 6dbf ea79 3abf
000001b0: 80dc 433d c011 993e a485 253f 0000 80bf
000001c0: dc73 7fbf 509b 5ebf f352 10bf 0000 80bf
000001d0: 00c6 73bd 0502 69bf 4cd8 51be 0000 80bf
000001e0: 0000 80bf 0000 80bf 346c fbbe 40eb febe
000001f0: e0de 713d d8ab 243f 0000 80bf 0000 80bf
00000200: 0000 0000 0000 80bf 0000 80bf 0000 80bf
00000210: 2070 23be f0b7 0f3e 4cbd c43e 0a2a 173f
00000220: 0000 80bf 0000 80bf 0000 80bf 0000 80bf
00000230: f4bf b6be e08d 083e 504e 813d c04e 3e3e
00000240: 0000 80bf 0000 80bf 6025 e1be df4a 6cbf
00000250: 0000 80bf 87d9 0abf 31bd 37bf f89f b43e
00000260: 0000 80bf f2fc 17bf 0000 80bf e075 68bf
00000270: 0000 80bf 0000 80bf 0b5a 4abf 0000 80bf
00000280: 298e 69bf 74fc 62bf 0000 80bf 7727 5fbf
00000290: 0000 80bf c999 2abf a8fb debd 90b5 3b3e
000002a0: aa69 333f 6834 083f 0000 80bf 0000 80bf
000002b0: ce9e e6be a663 22bf 9507 6fbf 0000 80bf
000002c0: 5804 fb3e 3497 77bf 0000 80bf 0061 553d
000002d0: fc59 b5be 0000 80bf 3894 24bf 0000 80bf
000002e0: 5806 943e 443f 8c3e 0000 80bf 0000 80bf
000002f0: 0000 80bf 4b99 75bf 0000 80bf 0000 80bf
00000300: 0000 0000 7025 76bf 6017 2c3f a46a 47bf
00000310: f638 0f3f c443 32bf 0000 80bf f4cf 133f
00000320: 26b7 7cbf 04ac 70bf 4a43 7dbf 0000 80bf
00000330: 1408 24bf 80a1 d0bd 0000 80bf 0000 80bf
00000340: b0e1 613e aa0f 13bf fc03 bdbe 3c40 15bf
00000350: 717b 6ebf 646f 0d3f 6023 de3d 0000 80bf
00000360: 3994 24bf 702e 5abe 803b 1b3d 2be4 61bf
00000370: 0000 80bf 0000 80bf c039 2cbc 0000 80bf
00000380: 7150 72bf dc9e 7bbf dffa 19bf 0000 80bf
00000390: dc9e 7bbf ea4e 3ebf c063 4c3f 0000 80bf
000003a0: 04ac 70bf def4 73bf b93d 77bf 7929 48bf
000003b0: 0000 80bf 0000 80bf 0000 80bf 0000 80bf
000003c0: db73 7fbf 0000 80bf ac66 a3be 4a6e 79bf
000003d0: 0000 80bf 0000 80bf 9819 e43e 0000 80bf
000003e0: dc9e 7bbf 0000 80bf 0000 80bf 0000 80bf
000003f0: 04a0 a43e c479 833e 0000 80bf 0000 80bf

weight f4 [15, 256]
-0.20422769 -0.17047672 -0.11038642 0.08568554 0.027919577 0.20034747 0.23278801 -0.12566389
0.21875069 0.043504063 -0.3923577 -0.49298048 -0.30825824 0.07532181 -0.030072248 1.6797491
-0.15810116 -0.013763052 -0.22388856 0.013240647 -0.07199996 0.118544094 0.23216508 -0.05248887
0.13922241 0.1738078 0.13974403 0.53294426 0.35546577 -0.18728432 -0.26229858 -0.18890838
-0.39073446 -0.08377107 0.0013056799 -0.36309567 0.044900242 -0.17035037 0.15754764 0.30045667
0.20362885 -0.11008415 0.21179172 0.36754748 -0.17930047 0.07827805 -0.011539001 0.29323673
-0.22751324 -0.06306974 -0.12294308 -0.12761159 0.22310026 -0.37700847 -0.26582175 0.019711027
0.48089793 -0.04247483 -0.083104365 0.072839394 -0.15195481 -0.26260352 -0.016144138 0.2677327
0.007234622 -0.32377025 -0.39238378 -0.0134402 0.21093613 -0.15924083 -0.0010540524 0.18301035
0.0444982 -0.062974505 -0.12952812 0.25687766 -0.042777702 0.12590133 -0.069878906 -0.64962435
-0.2146971 -0.39876634 -0.17101906 -0.12309926 0.24186306 0.04097002 -0.32753074 0.12945274
0.2378812 -0.14583571 0.009788227 0.2947668 -0.218845 -0.12885663 -0.1510288 0.73231435
-0.13895784 0.10857225 -0.076311074 0.11043519 0.14192773 -0.13080272 0.19988512 -0.10578251
0.2235819 -0.11284278 0.0685542 0.22623943 0.03334895 -0.3217811 -0.15224653 0.6113476
-0.2867372 -0.34371498 -0.16691686 0.21813133 0.058594983 0.06109483 0.021532249 -0.2791973
0.16486782 0.18258749 -0.00259405 0.14861302 0.021256307 0.63643086 0.58917755 2.1468153
-0.3501857 0.17165573 -0.03356714 -0.011118081 0.06511648 -0.07556455 0.13387194 -0.8554618
0.23800251 -0.19474901 0.35065678 -0.06770264 0.03436473 -0.14616792 -0.17349654 1.2860223
-0.09451128 -0.3339716 0.041035675 -0.04913772 -0.06917491 -0.6010648 0.0087522315 -0.5131628
0.054713182 -0.04599099 0.2321667 0.18604057 -0.05983441 -0.27353394 -0.28405786 0.7789569
0.09824164 -0.020534463 -0.30051935 -0.08172184 0.6390545 -0.5148509 -0.6416365 0.13551098
0.3034397 -0.16518298 -0.4157827 0.07504933 0.07006495 0.100204386 -0.06196856 -0.29848486
-0.49764118 -0.17036486 -0.3230898 0.039113354 0.07242579 -0.114665285 -0.032792695 0.24907365
0.19951874 0.053329747 0.044030488 0.3566784 0.08102034 -0.07050561 -0.16111766 0.114413686
0.09639708 -0.10957737 0.16913866 0.067198426 -0.1353949 0.04443393 -0.03171965 -0.107056774
-0.08359542 -0.03525918 0.1277191 0.042987105 -0.06952432 -0.12952226 -0.03629177 -0.35657793
-0.070063934 0.13701406 -0.16974308 -0.08523945 0.07217897 0.08225782 -0.2910695 0.2046263
0.022821778 -0.23473717 -0.2684346 0.30028158 -0.05360852 0.23079433 -0.1012263 -0.19069609
0.11935712 -0.12537672 -0.012022111 0.110109314 0.115870394 0.06362127 -0.092737705 0.121333905
0.044769943 -0.11846348 -0.10960918 0.05895205 0.06744734 0.02889178 -0.11573812 -0.034755323
-0.059586104 -0.0077695088 -0.29791516 -0.042927016 0.050725974 -0.019310644 -0.027294941 0.23136343
0.06295554 -0.053052954 -0.14931142 -0.1531149 0.012614134 0.02899517 -0.07357361 -0.032664534
00000000: 1021 51be 7391 2ebe 4612 e2bd e77b af3d
00000010: 99b7 e43c e327 4d3e fb5f 6e3e 09ae 00be
00000020: 2e00 603e 5131 323d 1ce3 c8be f067 fcbe
00000030: 06d4 9dbe 5242 9a3d 135a f6bc 0502 d73f
00000040: 45e5 21be 6d7e 61bc 0b43 65be 4cef 583c
00000050: b774 93bd 3fc7 f23d afbc 6d3e 92fe 56bd
00000060: 5290 0e3e acfa 313e 0f19 0f3e 096f 083f
00000070: 9cff b53e 76c7 3fbe 004c 86be 3371 41be
00000080: 590e c8be 2b90 abbd 5923 ab3a ade7 b9be
00000090: 51e9 373d 5470 2ebe 2b54 213e 75d5 993e
000000a0: 1584 503e cd73 e1bd eedf 583e 2f2f bc3e
000000b0: 8b9a 37be 3e50 a03d 140e 3dbc 2023 963e
000000c0: 3bf9 68be b52a 81bd 95c9 fbbd 9dac 02be
000000d0: 6574 643e 4107 c1be ca19 88be 0579 a13c
000000e0: 4138 f63e 16fa 2dbd 9f32 aabd d22c 953d
000000f0: 0b9a 1bbe f873 86be b640 84bc 4314 893e
00000100: 6810 ed3b 37c5 a5be 87e6 c8be 4934 5cbc
00000110: a4ff 573e 0710 23be 2128 8aba 1167 3b3e
00000120: bf43 363d c7f8 80bd 05a3 04be 7885 833e
00000130: ac37 2fbd 47ec 003e ac1c 8fbd c84d 26bf
00000140: 8ed9 5bbe 1a2b ccbe 9f1f 2fbe 771b fcbd
00000150: f3aa 773e 2ed0 273d 1cb2 a7be 428f 043e
00000160: 2197 733e f555 15be cd5e 203c adeb 963e
00000170: e718 60be fef2 03be 4ba7 1abe f478 3b3f
00000180: f74a 0ebe 215b de3d fb48 9cbd d82b e23d
00000190: 8155 113e 26f1 05be afae 4c3e 80a4 d8bd
000001a0: a7f2 643e 1e1a e7bd 2566 8c3d 4fab 673e
000001b0: e998 083d 7ec0 a4be 84e6 1bbe 4781 1c3f
000001c0: 38cf 92be 69fb afbe 41ec 2abe d25d 5f3e
000001d0: 4b01 703d 933e 7a3d 6664 b03c f3f2 8ebe
000001e0: 1cd3 283e 37f8 3a3e f000 2abb 032e 183e
000001f0: b521 ae3c 22ed 223f 57d4 163f 6c65 0940
00000200: 8a4b b3be 85c6 2f3e b37d 09bd 9d28 36bc
00000210: ca5b 853d 96c1 9abd ba15 093e 8bff 5abf
00000220: eeb6 733e 496c 47be 4989 b33e afa7 8abd
00000230: 08c2 0c3d 0bad 15be 14a9 31be 619c a43f
00000240: 218f c1bd 53fe aabe 0615 283d a244 49bd
00000250: 93ab 8dbd 62df 19bf 8565 0f3c a35e 03bf
00000260: ee1a 603d 0c61 3cbd 1bbd 6d3e 6b81 3e3e
00000270: ed14 75bd a40c 8cbe 0870 91be b869 473f
00000280: ea32 c93d e437 a8bc acdd 99be c85d a7bd
00000290: 1399 233f 45cd 03bf 4a42 24bf 64c3 0a3e
000002a0: 735c 9b3e ba25 29be 78e1 d4be 77b3 993d
000002b0: 367e 8f3d f537 cd3d bfd2 7dbd 02d3 98be
000002c0: d3ca febe 2074 2ebe 076c a5be 5335 203d
000002d0: f953 943d a2d5 eabd a251 06bd 2a0d 7f3e
000002e0: a44e 4c3e 4b70 5a3d 5059 343d 8d9e b63e
000002f0: feed a53d 3f65 90bd 07fc 24be b951 ea3d
00000300: d56b c53d 1a6a e0bd af32 2d3e 549f 893d
00000310: f6a4 0abe 5a00 363d 77ec 01bd 9540 dbbd
00000320: 1334 abbd ee6b 10bd ccc8 023e 3f13 303d
00000330: c462 8ebd 7ca1 04be aea6 14bd 6291 b6be
00000340: ae7d 8fbd 6a4d 0c3e 21d1 2dbe 0592 aebd
00000350: 91d2 933d ca76 a83d 1007 95be 8f89 513e
00000360: bdf4 ba3c f15e 70be 4370 89be 82be 993e
00000370: 9c94 5bbd 5955 6c3e bc4f cfbd d645 43be
00000380: 8171 f43d c162 00be 63f8 44bc fe80 e13d
00000390: 754d ed3d de4b 823d 44ed bdbd e97d f83d
000003a0: b060 373d fb9c f2bd c77a e0bd b477 713d
000003b0: d521 8a3d 74ae ec3c 1c08 edbd 995b 0ebd
000003c0: 8f10 74bd 5d97 febb 5688 98be 3dd4 2fbd
000003d0: 0ac6 4f3d 5b31 9ebc a499 dfbc 89ea 6c3e
000003e0: d6ee 803d 0e4e 59bd 18e5 18be 27ca 1cbe
000003f0: 83ab 4e3c 4787 ed3c c3ad 96bd 3fcb 05bd
