best_model_all_surface_planE.pth (torch, 443209 bytes, 8 tensors)

weight f4 [4, 2, 3, 3]
000000 5e d4 b7 be 03 f2 67 be 78 9f 30 3f 7e 00 89 3e
       -0.3590421 -0.22650914 0.6899333 0.26758188
000010 05 a7 95 3e df ba e7 3e 05 23 c6 3e 84 c8 be 3e
       0.29228988 0.4525976 0.38698593 0.37262356
000020 7f cf ca 3e cb d1 b7 bf 84 4c d2 bf aa ea 19 3f
       0.39611432 -1.4360899 -1.6429601 0.60123694
000030 08 fe 33 bf 72 9b 89 bf 25 76 89 bf 1b c1 34 3f
       -0.70309496 -1.0750563 -1.073918 0.70607156
000040 75 a9 09 be b9 0f 95 bf 53 13 9b bf bc 2c 39 bf
       -0.13443549 -1.1645423 -1.2115272 -0.72333884
000050 5a eb e8 3d 6a c0 73 3e 09 f1 22 be e9 f6 d4 bd
       0.11373015 0.23803869 -0.1591226 -0.10398657
000060 88 2c e5 3e 6d f7 cb 3e bd 26 3c 3e 2c 59 ab 3e
       0.44760537 0.39837208 0.18374152 0.3346647
000070 2a 5d 32 be 5c da ca bc 50 36 6e 3f 87 c4 0b 3f
       -0.17418352 -0.024762325 0.93051624 0.5459675
000080 6e fe 71 be 16 c1 a7 3f 97 de 51 3f 4a 9e ca 3e
       -0.23632213 1.31058 0.8198027 0.3957389
000090 93 43 ed 3f 65 dc d5 3f ca 9f 14 40 30 29 d8 3f
       1.8536247 1.6707884 2.3222528 1.688757
0000a0 2e a8 2e 40 7c 33 0d 40 68 bf 4b 3f 80 49 1a 40
       2.7290149 2.2062674 0.7958894 2.410736
0000b0 bc 14 03 40 ab 21 6b 3f f0 fc 13 3e 64 0c 5e 3f
       2.0481405 0.9184825 0.14451957 0.86737657
0000c0 be 49 01 3f fe d9 43 3f 39 2f 6c be 13 2e 90 bd
       0.50503147 0.76504505 -0.23064889 -0.07040038
0000d0 71 c8 68 3e b4 42 e4 be 0c b3 0f 3f f7 5e ca 3e
       0.22732712 -0.4458214 0.5613258 0.39525577
0000e0 a6 42 db 3e db 2e 73 3f 08 22 d3 3f f1 87 9a 3f
       0.42824286 0.9499337 1.649476 1.2072736
0000f0 37 7b d8 3f 4d cf 16 40 6e ab 16 40 1a 72 fd 3f
       1.6912602 2.3564026 2.3542132 1.9800446
000100 e2 65 85 3f 0e 56 80 3f 0e 14 cb 3f bc 2d c9 3f
       1.0421717 1.0026262 1.5865495 1.5717082
000110 d1 97 c2 3e f4 6e 99 3f f4 b4 5d 3f 23 d2 22 3f
       0.38006452 1.1986985 0.8660424 0.63601893

v_mem f4 [4, 4, 64, 64]
000000 00 00 00 00 00 00 00 00 00 00 00 00 00 00 00 00
       0.0 0.0 0.0 0.0
000010 00 00 00 00 00 00 00 00 00 00 00 00 00 00 00 00
       0.0 0.0 0.0 0.0
000020 00 00 00 00 00 00 00 00 00 00 00 00 00 00 00 00
       0.0 0.0 0.0 0.0
000030 00 00 00 00 00 00 00 00 00 00 00 00 00 00 00 00
       0.0 0.0 0.0 0.0
000040 00 00 00 00 00 00 00 00 00 00 00 00 00 00 00 00
       0.0 0.0 0.0 0.0
000050 00 00 00 00 00 00 00 00 00 00 00 00 00 00 00 00
       0.0 0.0 0.0 0.0
000060 00 00 00 00 00 00 00 00 00 00 00 00 00 00 00 00
       0.0 0.0 0.0 0.0
000070 00 00 00 00 00 00 00 00 00 00 00 00 00 00 00 00
       0.0 0.0 0.0 0.0
000080 00 00 00 00 00 00 00 00 00 00 00 00 00 00 00 00
       0.0 0.0 0.0 0.0
000090 00 00 00 00 00 00 00 00 00 00 00 00 00 00 00 00
       0.0 0.0 0.0 0.0
0000a0 00 00 00 00 00 00 00 00 00 00 00 00 00 00 00 00
       0.0 0.0 0.0 0.0
0000b0 00 00 00 00 00 00 00 00 00 00 00 00 00 00 00 00
       0.0 0.0 0.0 0.0
0000c0 00 00 00 00 00 00 00 00 00 00 00 00 00 00 00 00
       0.0 0.0 0.0 0.0
0000d0 00 00 00 00 00 00 00 00 00 00 00 00 00 00 00 00
       0.0 0.0 0.0 0.0
0000e0 00 00 00 00 00 00 00 00 00 00 00 00 00 00 00 00
       0.0 0.0 0.0 0.0
0000f0 00 00 00 00 00 00 00 00 00 00 00 00 00 00 00 00
       0.0 0.0 0.0 0.0
000100 00 00 00 00 00 00 00 00 00 00 00 00 00 00 00 00
       0.0 0.0 0.0 0.0
000110 00 00 00 00 00 00 00 00 00 00 00 00 00 00 00 00
       0.0 0.0 0.0 0.0
000120 00 00 00 00 00 00 00 00 00 00 00 00 00 00 80 bf
       0.0 0.0 0.0 -1.0
000130 73 fe 55 bf 00 00 00 00 00 00 00 00 00 00 00 00
       -0.83591384 0.0 0.0 0.0
000140 00 00 00 00 00 00 00 00 00 00 00 00 00 00 00 00
       0.0 0.0 0.0 0.0
000150 00 00 00 00 00 00 00 00 00 00 00 00 00 00 00 00
       0.0 0.0 0.0 0.0
000160 00 00 00 00 00 00 00 00 00 00 00 00 00 00 00 00
       0.0 0.0 0.0 0.0
000170 00 00 00 00 00 00 00 00 00 00 00 00 00 00 00 00
       0.0 0.0 0.0 0.0
000180 00 00 00 00 00 00 00 00 00 00 00 00 00 00 00 00
       0.0 0.0 0.0 0.0
000190 00 00 00 00 00 00 00 00 00 00 00 00 00 00 00 00
       0.0 0.0 0.0 0.0
0001a0 c0 75 4f 3f e0 07 90 3d 00 00 00 00 00 00 00 00
       0.8103905 0.07032752 0.0 0.0
0001b0 00 00 00 00 00 00 00 00 00 00 00 00 00 00 00 00
       0.0 0.0 0.0 0.0
0001c0 00 00 00 00 00 00 00 00 00 00 00 00 00 00 00 00
       0.0 0.0 0.0 0.0
0001d0 00 00 00 00 00 00 00 00 00 00 00 00 00 00 00 00
       0.0 0.0 0.0 0.0
0001e0 00 00 00 00 00 00 00 00 00 00 00 00 00 00 00 00
       0.0 0.0 0.0 0.0
0001f0 70 21 47 3e 00 69 eb 3c 00 00 00 00 00 00 00 00
       0.19446349 0.028736591 0.0 0.0
000200 00 00 00 00 00 00 00 00 00 00 00 00 00 00 00 00
       0.0 0.0 0.0 0.0
000210 00 00 00 00 00 00 00 00 00 00 00 00 00 00 00 00
       0.0 0.0 0.0 0.0
000220 00 00 00 00 00 00 00 00 00 00 00 00 00 00 00 00
       0.0 0.0 0.0 0.0
000230 00 00 00 00 00 00 00 00 00 00 00 00 00 00 00 00
       0.0 0.0 0.0 0.0
000240 00 00 00 00 00 00 00 00 00 00 00 00 00 00 00 00
       0.0 0.0 0.0 0.0
000250 00 00 00 00 00 00 00 00 00 00 00 00 00 00 00 00
       0.0 0.0 0.0 0.0
000260 00 00 00 00 00 00 00 00 00 00 00 00 00 00 00 00
       0.0 0.0 0.0 0.0
000270 00 00 00 00 00 00 00 00 00 00 00 00 00 00 00 00
       0.0 0.0 0.0 0.0
000280 00 00 00 00 00 00 00 00 00 00 80 bf d0 f6 59 3f
       0.0 0.0 -1.0 0.8514223
000290 00 00 00 00 00 00 00 00 00 00 00 00 00 00 00 00
       0.0 0.0 0.0 0.0
0002a0 00 00 00 00 00 00 00 00 00 00 00 00 00 00 00 00
       0.0 0.0 0.0 0.0
0002b0 00 00 00 00 00 00 00 00 00 00 00 00 00 00 00 00
       0.0 0.0 0.0 0.0
0002c0 00 00 00 00 00 00 00 00 00 00 00 00 00 00 00 00
       0.0 0.0 0.0 0.0
0002d0 00 00 00 00 00 00 00 00 00 00 00 00 00 00 00 00
       0.0 0.0 0.0 0.0
0002e0 00 00 00 00 00 00 00 00 00 00 00 00 00 00 00 00
       0.0 0.0 0.0 0.0
0002f0 e0 77 49 3f 00 00 80 bf 00 00 00 00 00 00 00 00
       0.7869854 -1.0 0.0 0.0
000300 00 00 00 00 00 00 00 00 00 00 00 00 00 00 00 00
       0.0 0.0 0.0 0.0
000310 00 00 00 00 00 00 00 00 00 00 00 00 00 00 00 00
       0.0 0.0 0.0 0.0
000320 00 00 00 00 00 00 00 00 00 00 00 00 00 00 00 00
       0.0 0.0 0.0 0.0
000330 00 00 00 00 00 00 00 00 00 00 00 00 00 00 00 00
       0.0 0.0 0.0 0.0
000340 00 00 00 00 00 00 00 00 00 00 00 00 00 00 00 00
       0.0 0.0 0.0 0.0
000350 00 00 00 00 00 00 00 00 00 00 00 00 00 00 00 00
       0.0 0.0 0.0 0.0
000360 00 00 00 00 00 00 80 bf e0 d0 35 3f 04 85 2a 3f
       0.0 -1.0 0.7102184 0.66609216
000370 8c 2e 0a 3f 4a 3f 48 3f 50 d8 23 3e 02 84 1e 3f
       0.53977275 0.7822157 0.16000485 0.6192018
000380 00 c2 54 be b8 92 ac 3e f2 ae 1d 3f 00 d6 29 3d
       -0.2077713 0.33705688 0.6159507 0.041463852
000390 90 a5 5b 3f 08 70 39 3f f8 9d 6d 3e d4 a9 bc 3e
       0.85799503 0.7243657 0.23204792 0.3684832
0003a0 00 00 00 00 00 00 00 00 00 00 00 00 00 00 00 00
       0.0 0.0 0.0 0.0
0003b0 00 00 00 00 00 00 00 00 00 00 00 00 00 00 00 00
       0.0 0.0 0.0 0.0
0003c0 00 00 00 00 00 00 00 00 00 00 00 00 00 00 00 00
       0.0 0.0 0.0 0.0
0003d0 00 00 00 00 00 00 00 00 00 00 00 00 00 00 00 00
       0.0 0.0 0.0 0.0
0003e0 00 00 00 00 00 00 00 00 00 00 00 00 00 00 00 00
       0.0 0.0 0.0 0.0
0003f0 00 00 00 00 00 00 00 00 00 00 00 00 00 00 00 00
       0.0 0.0 0.0 0.0

weight f4 [8, 4, 3, 3]
000000 8c e5 81 bd 30 41 62 be f9 a4 35 be 6f f7 d4 bc
       -0.06342611 -0.2209518 -0.17738713 -0.025996892
000010 de 40 17 3f 88 34 54 3f 8a e1 83 bf 68 a7 c1 3e
       0.59083354 0.82892656 -1.0303204 0.37823033
000020 c4 40 1b 3f 4a f6 90 3e 13 b5 1a 3f 53 8a a2 3e
       0.606457 0.28312904 0.6043255 0.31746158
000030 0d 2d 69 3d 58 9b e6 be d4 8d f9 3e f3 cc 2c bd
       0.05692773 -0.45040393 0.4874102 -0.042187642
000040 01 43 a7 bc f1 49 98 3d a3 14 a1 3e 67 f9 61 be
       -0.020417692 0.07435978 0.31461057 -0.22067796
000050 c2 6f f8 be e6 89 ff bd d7 7e 11 3e 52 f0 fc 3e
       -0.48522764 -0.12477474 0.14208542 0.494021
000060 4d e2 4c bf e7 bd 7d be c2 88 f5 3e 85 ac 9a 3e
       -0.8003281 -0.24779473 0.479559 0.30209747
000070 66 72 cb 3e f5 c9 a0 3d f5 a7 21 be cb f9 83 be
       0.39735717 0.0785102 -0.15786727 -0.25776514
000080 c9 cf fb 3d 61 03 25 bf 9c 60 ac be 81 9a 33 3d
       0.12295491 -0.6445828 -0.33667457 0.04384852
000090 4f 7d 88 be 17 4c 3c 3e 94 c6 39 3f 4b bc 49 bf
       -0.26658103 0.18388401 0.7256863 -0.7880294
0000a0 34 de a6 be ed 32 5f 3f df 04 7e be b2 bd 7e 3d
       -0.32591403 0.8718708 -0.24806546 0.062192626
0000b0 e8 1f 30 3f 53 18 0d 3f 8d f0 0d bc 1d fb b9 3e
       0.68798685 0.5511524 -0.008663309 0.36324397
0000c0 0e c0 b3 be ea b5 b9 3e 81 ba 9a 3c 43 ee 19 3e
       -0.35107464 0.36271602 0.01888776 0.15032296
0000d0 9d 58 9a 3e 65 fb 4a 3f 5e 5d 11 bf 7e bd 14 3e
       0.30145732 0.7928985 -0.5678309 0.1452541
0000e0 5a 43 7d 3d 12 8e 4e bf 04 1f 97 be 78 20 9d 3e
       0.06183181 -0.8068553 -0.2951585 0.30688834
0000f0 c2 00 8c 3d 83 88 15 be d4 25 37 be 5a be 13 be
       0.06836082 -0.14602856 -0.17885524 -0.14428082
000100 2a 06 0c be f1 b5 86 3e 96 32 f8 be 2b aa e2 be
       -0.13674226 0.26310685 -0.48476094 -0.44270453
000110 97 89 d3 3d db 08 c0 bd 21 16 6c 3e 6e 48 73 bd
       0.103289776 -0.09376689 0.23055317 -0.059395246
000120 84 e2 85 3e 98 9c f8 3e 89 dc 8e 3e c4 9d 8a bd
       0.2614938 0.48556972 0.2790263 -0.06768373
000130 43 bb 83 3f 75 65 45 3f ac 48 07 bf 89 96 fe bd
       1.0291523 0.77107936 -0.52845263 -0.12431056
000140 f9 55 fa bd e0 83 36 3e b7 99 a4 3e eb 87 e1 3e
       -0.12223429 0.17823744 0.32148525 0.4404901
000150 d1 22 05 3e 43 88 b5 3d 87 ea 01 3f bb 0e 86 be
       0.13001563 0.088638805 0.50748485 -0.26183113
000160 f7 df 23 3e 49 a7 0d be ba 01 b9 3d b8 7e 7c 3e
       0.16003405 -0.13833345 0.090335324 0.24657714
000170 39 32 ba 3c ee fe 8c be e8 fd 19 3e e9 45 5f 3e
       0.022729026 -0.27538246 0.15038264 0.21804012
000180 d0 56 fd be f4 1c 83 be 13 d2 9d be 05 a1 8e 3e
       -0.49480295 -0.25608027 -0.30824336 0.27857223
000190 0f 18 db 3e bf dc d3 3e 41 8d 96 bd 11 cb d2 bd
       0.42791793 0.41379353 -0.07351161 -0.10292638
0001a0 5a 80 a2 3e 6c 19 22 bf 3e 89 35 bf ca e7 5a be
       0.3173855 -0.6332004 -0.7091254 -0.21377483
0001b0 94 37 70 bd 48 d2 17 3e 57 a4 14 3e ec 26 81 be
       -0.058646753 0.1482631 0.14515816 -0.25225008
0001c0 c1 ef 29 be 63 47 5f 3f 3c 5c 39 3f 48 9b 6c 3f
       -0.16595365 0.872183 0.72406363 0.9242444
0001d0 e9 55 05 3f 1d b4 96 3c 0c 26 08 bd d2 65 df 3e
       0.52084213 0.018396432 -0.03323941 0.4363237
0001e0 81 58 b0 be 15 f1 e3 bc ae cc e1 3e 2e a1 a0 3e
       -0.34442523 -0.027824918 0.4410147 0.3137297
0001f0 ce 6a 38 3f aa 8f fc 3e d5 5a 80 3e f7 2f c1 be
       0.7203797 0.49328357 0.250693 -0.37731907
000200 52 f8 6a be 53 b3 2e bf f3 ee 1b bf 67 5a 10 3f
       -0.22946289 -0.6824238 -0.6091148 0.56387943
000210 20 a0 ff 3d 63 c8 99 3e 9a 5c 5d 3c b9 83 81 3e
       0.12481713 0.30035695 0.013510847 0.2529581
000220 27 f9 e2 be 25 ea 2b be 31 4a 7d bf 0b e8 0f be
       -0.44330713 -0.16788538 -0.9894133 -0.14053361
000230 88 cf 22 3f d0 bd aa 3d e2 7e cd 3e 00 cb f7 be
       0.6359792 0.08336985 0.40135866 -0.48397064
000240 ca 4e bb be 73 39 c0 be 58 45 3f bf 17 7e de 3e
       -0.3658355 -0.3754383 -0.74715185 0.43455574
000250 1a 7b eb 3d bc b8 74 3e 74 63 6a 3e 06 42 2a 3e
       0.11498089 0.23898596 0.22889501 0.16626748
000260 9b 7f 7d 3e c8 12 1f 3d 5d f7 1d 3e 17 72 70 be
       0.24755709 0.03883627 0.15426393 -0.23481022
000270 80 43 35 3f 90 7a 30 3f 5d b0 f9 3e 46 e0 e6 3e
       0.7080612 0.68937016 0.48767367 0.45092982
000280 cf 43 14 3e a8 4b 0a 3f 0e 10 07 3c d7 60 bf be
       0.14478992 0.5402169 0.008243574 -0.3737857
000290 cc a9 42 be 6a c3 77 be 49 94 c0 be 1c 45 12 bf
       -0.19010085 -0.24195638 -0.37613133 -0.571367
0002a0 4c f7 d3 3e dd 03 d4 3d 47 1c e2 3e c5 de 67 be
       0.4139961 0.10352299 0.441622 -0.22643574
0002b0 12 e9 95 be 3a 13 10 bf a3 9d 60 3e 53 4c a3 bd
       -0.2927938 -0.5627934 0.21935134 -0.07973542
0002c0 99 eb 18 be 9d 93 17 3f d4 f4 be ba 58 14 c7 3e
       -0.14933623 0.59209615 -0.0014568814 0.3888271
0002d0 df d9 0d bd d3 79 ca 3e a3 0a 04 bc 91 69 9e be
       -0.034631606 0.3954607 -0.008059177 -0.30939916
0002e0 d7 31 1d be 55 75 9d 3c c6 ae 34 3d 82 d9 ec be
       -0.15351044 0.019220987 0.04411199 -0.46259695
0002f0 e7 c8 e3 bd a7 f7 a6 be df fe 4f bd 44 ea 13 3b
       -0.111223035 -0.3261082 -0.050780173 0.0022570053
000300 37 aa e3 3e ad 83 1e 3f 97 51 68 3e b7 65 41 3f
       0.444658 0.6191967 0.22687374 0.7554583
000310 63 38 36 be 4d 88 0f be 5f 4b a7 3d 15 3e 8a 3e
       -0.17794947 -0.14016838 0.08168673 0.2700049
000320 de ad a6 3e 61 94 3b be da 82 82 bd 2a 3c 05 3e
       0.32554525 -0.18318321 -0.06372614 0.13011232
000330 48 d3 5e 3e b4 b8 22 bf f6 41 8c be 59 d9 9a be
       0.21760285 -0.63563085 -0.27394074 -0.30243948
000340 ff c7 da 3d de 33 8a 3e 31 30 8d be 39 10 72 3e
       0.106826775 0.26992697 -0.2757583 0.23639001
000350 ef 02 7c 3e 7d 73 0b 3f 35 49 0b bf c5 81 44 3e
       0.24610494 0.54473096 -0.5440858 0.19190128
000360 0d b9 2c bf b0 db f7 3d 41 e2 5d bf 6c fa 6d 3f
       -0.67469865 0.12102449 -0.8667336 0.9296024
000370 d2 67 83 3f 60 01 65 3c 30 67 88 3d 31 d1 22 3f
       1.0266058 0.013977379 0.066603065 0.6360045
000380 75 36 e3 3d 6e a7 06 bf 7d ea 4d be c2 80 0a bf
       0.11094371 -0.5259923 -0.20108981 -0.5410272
000390 0e ce ff 3e be 5c cb 3e e8 0f e3 3d 27 1a 7a 3e
       0.49961895 0.39719194 0.11087018 0.24424039
0003a0 85 2a c9 3e e1 23 a0 bd b0 74 ee be 12 7a 34 3e
       0.39290252 -0.07819343 -0.465734 0.17624691
0003b0 9e 39 75 bf 1b 02 98 3e 3f e1 f4 3e f2 25 a5 be
       -0.9579104 0.29689106 0.478281 -0.32255512
0003c0 9e ef 9f 3d 4a 6b c4 3b 52 64 a0 be 02 fa a7 be
       0.07809375 0.005994235 -0.31326538 -0.32807928
0003d0 dc d3 90 3d 77 3a b6 be c3 ac 76 3d 95 5c e4 3e
       0.07071659 -0.3559148 0.060223352 0.44601884
0003e0 19 6e cb be 59 fa d9 3d 25 6b 0e 3e f2 ec 9b 3c
       -0.39732435 0.10643453 0.1390806 0.019033883
0003f0 0b 11 88 bd b5 79 1b bf f8 22 20 3e cf fa 16 3e
       -0.06643876 -0.60732585 0.1563834 0.14744113

v_mem f4 [4, 8, 32, 32]
000000 00 00 00 00 00 00 00 00 00 00 00 00 00 00 00 00
       0.0 0.0 0.0 0.0
000010 98 e8 cb 3e 78 7b 27 3e 00 00 80 bf 00 00 80 bf
       0.39825892 0.16355693 -1.0 -1.0
000020 00 00 00 00 00 00 00 00 00 00 00 00 f0 f9 9d 3e
       0.0 0.0 0.0 0.3085475
000030 c0 21 fc 3e ec 54 52 3f c0 0d 3e 3d 00 00 80 bf
       0.492445 0.8216083 0.04639983 -1.0
000040 ca 30 16 bf d4 ca 60 bf 00 00 80 bf 00 00 80 bf
       -0.58668196 -0.8780949 -1.0 -1.0
000050 24 f4 7e bf 00 00 80 bf 00 00 00 00 00 00 00 00
       -0.9959128 -1.0 0.0 0.0
000060 00 00 00 00 00 00 00 00 00 00 00 00 00 00 00 00
       0.0 0.0 0.0 0.0
000070 00 00 00 00 08 96 85 3e 00 00 80 bf 00 00 80 bf
       0.0 0.26091027 -1.0 -1.0
000080 00 00 00 00 00 00 00 00 00 00 00 00 00 00 00 00
       0.0 0.0 0.0 0.0
000090 f1 fd 7a bf c1 f3 4d bf c6 5f 35 3f 5c 69 5a 3f
       -0.98043734 -0.80450064 0.70849264 0.85317016
0000a0 c6 13 06 3f ba 44 3a 3f b6 9b 41 3f 56 da 4b bf
       0.5237392 0.7276112 0.7562822 -0.7963003
0000b0 3c 1d 23 3f 3a 7d 6b bf 60 00 ac be 90 91 0a bd
       0.63716483 -0.91987956 -0.33594036 -0.033830225
0000c0 00 00 80 bf ce e3 21 bf 00 63 c2 3c 0e b1 13 3f
       -1.0 -0.6323823 0.023728848 0.5769204
0000d0 6e 38 2c bf 00 00 80 bf 00 00 80 bf 00 00 00 00
       -0.67273605 -1.0 -1.0 0.0
0000e0 00 00 00 00 00 00 00 00 88 7e 3f 3f 00 00 80 bf
       0.0 0.0 0.74802446 -1.0
0000f0 00 00 80 bf 78 18 13 3f 02 ea 7a 3f 62 46 33 3f
       -1.0 0.5745921 0.9801332 0.7002927
000100 00 00 00 00 00 00 00 00 00 00 00 00 00 00 00 00
       0.0 0.0 0.0 0.0
000110 86 f4 3c 3f 00 00 80 bf 00 00 80 bf 00 00 00 00
       0.73810613 -1.0 -1.0 0.0
000120 68 da 59 3f 0c bd 53 3f a0 ab 31 3e 98 bd 09 bf
       0.85098886 0.8271034 0.17350626 -0.5380492
000130 00 00 80 bf dc 05 3a 3f 00 00 80 bf 00 00 80 bf
       -1.0 0.7266519 -1.0 -1.0
000140 fc 88 d3 be 00 00 80 bf 00 00 80 bf ec 6c 42 bf
       -0.41315448 -1.0 -1.0 -0.7594745
000150 00 00 80 bf fe 9b 6e bf 00 00 80 bf 00 00 80 bf
       -1.0 -0.93206775 -1.0 -1.0
000160 00 00 80 bf 00 00 00 00 4c be 37 3f 00 00 80 bf
       -1.0 0.0 0.71774745 -1.0
000170 00 00 80 bf 00 00 80 bf 00 00 80 bf 6a d7 04 3f
       -1.0 -1.0 -1.0 0.51891196
000180 00 00 00 00 00 00 00 00 00 00 00 00 00 00 00 00
       0.0 0.0 0.0 0.0
000190 ee 0a 62 3f 78 57 6e 3e 00 00 80 bf de 8b 57 3f
       0.8829793 0.23275554 -1.0 0.84197795
0001a0 8c 0d 29 3f 00 00 80 bf 70 cc 83 3e b6 9c 22 3f
       0.66036296 -1.0 0.2574191 0.6352037
0001b0 1a 67 ee be 00 8e 81 3e 00 00 80 bf 00 00 80 bf
       -0.46563035 0.2530365 -1.0 -1.0
0001c0 2e be 59 bf 90 43 75 bf 4e 7b f7 be 00 00 80 bf
       -0.85055816 -0.9580622 -0.48336262 -1.0
0001d0 00 00 80 bf 00 00 80 bf 00 00 80 bf 00 00 80 bf
       -1.0 -1.0 -1.0 -1.0
0001e0 00 00 80 bf 00 00 80 bf 00 6d a6 3e d8 f6 23 3f
       -1.0 -1.0 0.32505035 0.6404853
0001f0 6c 4b 7f 3f 00 00 80 bf 00 00 00 00 00 00 00 00
       0.9972446 -1.0 0.0 0.0
000200 4a 8e 36 3f 00 00 80 bf 00 00 80 bf 00 00 00 00
       0.71310866 -1.0 -1.0 0.0
000210 00 00 80 bf dc c7 43 3f 82 fd 10 3f 28 a6 6f 3f
       -1.0 0.76476836 0.5663682 0.9361291
000220 b8 94 1a 3e 00 00 80 bf 54 45 6a be c8 9b 4b 3f
       0.15095794 -1.0 -0.22878009 0.7953458
000230 d4 6c be 3e 40 96 89 bd 00 00 80 bf d0 d2 f4 3e
       0.37192404 -0.06718111 -1.0 0.47817087
000240 d6 b5 e9 be 00 00 80 bf 00 00 80 bf 46 6f 78 bf
       -0.45646542 -1.0 -1.0 -0.9704479
000250 00 00 80 bf 00 00 80 bf 00 00 80 bf 00 00 80 bf
       -1.0 -1.0 -1.0 -1.0
000260 00 00 80 bf 00 00 80 bf 60 f3 75 bf 00 e3 29 3f
       -1.0 -1.0 -0.96074486 0.66362
000270 90 35 02 3e 00 00 80 bf 00 00 00 00 00 00 00 00
       0.12715745 -1.0 0.0 0.0
000280 c0 c4 08 3e f0 70 2d bd 9e e1 46 bf 00 00 00 00
       0.13356304 -0.042344034 -0.77688015 0.0
000290 00 00 00 00 c0 2d ab 3d 82 5e 55 3f 70 96 18 bd
       0.0 0.083583355 0.8334733 -0.037252843
0002a0 40 b8 79 3e 98 24 89 3e 00 00 80 bf a0 92 10 3e
       0.24386692 0.2678573 -1.0 0.14118433
0002b0 4c 8f 65 3f ca 33 48 bf 91 20 13 bf 7a 56 2a 3f
       0.8967178 -0.78204024 -0.5747157 0.665382
0002c0 20 b8 7e 3d 34 55 34 bf c0 1d cf 3d a3 90 4e bf
       0.062187314 -0.7044251 0.10113096 -0.8068945
0002d0 00 00 80 bf 3a 8a 67 bf 00 00 80 bf 00 00 80 bf
       -1.0 -0.9044529 -1.0 -1.0
0002e0 00 00 80 bf 00 00 80 bf 00 00 80 bf 00 00 80 bf
       -1.0 -1.0 -1.0 -1.0
0002f0 00 4d 52 3d 66 0c 75 3f 00 00 00 00 00 00 00 00
       0.051342964 0.95722044 0.0 0.0
000300 00 00 80 bf 90 02 a8 3d 80 2f 31 3f 60 94 b4 3d
       -1.0 0.08203614 0.69213104 0.08817363
000310 c4 a7 4e bf 60 3c 31 3d ac 03 be 3e 00 00 80 bf
       -0.8072474 0.04327047 0.37112176 -1.0
000320 2c 65 73 3f 82 40 51 3f e3 4f 1e bf c4 f4 ca be
       0.9507625 0.81739056 -0.6184065 -0.39639866
000330 e8 d1 f3 3e 99 21 35 bf 00 00 80 bf 00 00 80 bf
       0.47621083 -0.7075439 -1.0 -1.0
000340 18 10 55 3f 78 f5 d8 3e 2c 1e 53 bf fc 91 62 bf
       0.8322768 0.42374778 -0.82467914 -0.88504004
000350 4c b6 7d bf f0 1b 6b bf 0c a7 72 bf 00 00 80 bf
       -0.9910629 -0.91839504 -0.94786143 -1.0
000360 00 00 80 bf 00 00 80 bf 00 00 80 bf e0 83 50 3d
       -1.0 -1.0 -1.0 0.050907016
000370 00 00 80 bf 00 00 80 bf 38 47 ef bd d4 cd 8b be
       -1.0 -1.0 -0.11683506 -0.27305472
000380 00 00 00 00 00 00 00 00 00 00 00 00 6a 93 02 3f
       0.0 0.0 0.0 0.51006186
000390 32 00 67 3f 98 85 3e 3e 7c 79 e6 3e 60 51 9d 3d
       0.90234673 0.1860565 0.4501456 0.07681537
0003a0 f6 3f cd be 20 f4 02 3e 98 6f e5 be 00 00 80 bf
       -0.4008786 0.12788439 -0.44811702 -1.0
0003b0 b8 02 52 be 74 fe 69 be 00 00 80 bf 00 00 80 bf
       -0.2050885 -0.22850972 -1.0 -1.0
0003c0 40 cb b8 3c dc 31 ed be 90 43 af 3e 6a 04 26 3f
       0.022557855 -0.46327102 0.34231234 0.64850485
0003d0 48 ed 54 bf 00 00 80 bf 00 00 80 bf 00 00 80 bf
       -0.8317456 -1.0 -1.0 -1.0
0003e0 00 00 80 bf 00 00 80 bf 00 00 80 bf 00 00 80 bf
       -1.0 -1.0 -1.0 -1.0
0003f0 71 37 75 bf 00 00 80 bf 00 88 4f 3a 60 a0 56 bd
       -0.9578772 -1.0 0.0007916689 -0.05239904

weight f4 [16, 8, 3, 3]
000000 c3 18 f4 be 60 ed 90 be d7 95 af be 5f b8 e0 be
       -0.47675142 -0.28306103 -0.34294006 -0.43890664
000010 00 b1 a9 bd cb 59 bc bd ea 2c 65 3e a5 55 c0 be
       -0.08285713 -0.09196814 0.22380415 -0.37565342
000020 7a 61 fd 3e c2 f5 15 bf 07 cc 68 3d 12 9b 8e 3d
       0.4948843 -0.5857812 0.0568352 0.06963171
000030 ed cb 03 be b0 ea 00 be 4e d7 1f 3f eb 80 0e be
       -0.1287076 -0.12589526 0.62437904 -0.13916366
000040 26 1c 95 bc fa fa 9e 3d 5c 01 1c bf 94 a2 04 bf
       -0.018201899 0.07762714 -0.60939574 -0.51810575
000050 74 e8 fa be 38 35 cc be ab 09 04 3b da a5 03 3e
       -0.49005473 -0.39884353 0.0020147364 0.12856236
000060 e6 d0 ae 3b 32 f8 77 bb 43 8c fd 3e 37 33 bf 3e
       0.005334961 -0.0037837145 0.49521074 0.3734376
000070 2e 84 99 3e f9 20 0b 3e 35 ad 96 be d5 0c 07 be
       0.29983658 0.13586797 -0.2942902 -0.13188489
000080 2e 79 a9 3e 09 ba 3d 3e 3f 17 36 3e 8b ad 43 be
       0.33100265 0.18527998 0.17782305 -0.1910917
000090 9a 99 b9 bd f5 4f 12 3e 1a 44 ed 3b 7e 61 c2 bd
       -0.090625 0.14288314 0.0072407844 -0.094912514
0000a0 d8 96 2d be 5b 9b 08 3e fa 11 d5 be aa 56 a6 3e
       -0.16952074 0.13340513 -0.41615278 0.32487994
0000b0 35 cf 89 bd 27 c3 e5 be 11 73 95 be c1 3a 19 be
       -0.06728975 -0.44875452 -0.2918935 -0.14963819
0000c0 27 48 49 bd 16 6e 89 bd a6 17 05 bf a0 fe 19 be
       -0.049141075 -0.0671045 -0.5198921 -0.15038538
0000d0 4c 1e 5a 3d 0e cc 7f 3e 2c b2 02 be 54 9f 32 be
       0.05325155 0.24980184 -0.1276328 -0.17443591
0000e0 f4 78 b2 3e a4 f7 7f 3e f6 f7 47 bd 17 35 0e 3f
       0.34857905 0.24996811 -0.04882046 0.5554976
0000f0 37 b8 1e be 6e 56 46 3e 8b 3c f1 3e 47 4e c8 be
       -0.1549996 0.19368908 0.47116503 -0.3912222
000100 bc 37 33 be 22 55 b8 3e c1 34 23 3e 4b 8c 3b be
       -0.1750173 0.3600245 0.15938093 -0.18315236
000110 de 88 19 3e 74 58 98 be 4c f8 f5 3d cb 20 8c be
       0.14993617 -0.29754984 0.120102495 -0.2736877
000120 2d 34 d0 be 37 4d bb 3e 15 66 06 bf fa 43 10 3f
       -0.40664807 0.36582348 -0.52499515 0.56353724
000130 59 71 d4 3d 59 48 94 bd 31 a3 61 be 61 4c 3d bc
       0.10373182 -0.07240362 -0.22034909 -0.011553855
000140 63 31 5e 3e 51 9f 38 3f 64 f2 1a 3d 18 1b 2c 3e
       0.21698527 0.721181 0.037828818 0.1680721
000150 9d 88 cb bc 9f 14 1d 3e 06 78 da bd a2 ea 91 3d
       -0.024845416 0.15339898 -0.10667424 0.07124831
000160 bf ad 7e be 6b 90 67 bf 8b 58 43 bf 22 bd 58 3e
       -0.24870966 -0.9045474 -0.7630698 0.21165898
000170 74 07 0a bf 68 3f 93 3e 9e c6 9d 3e d2 82 2f 3e
       -0.5391762 0.28759313 0.30815595 0.17139748
000180 c5 70 ac 3e 08 f0 65 3e c8 5b e6 3e bf 04 28 3f
       0.33679786 0.22454846 0.449919 0.6563224
000190 03 9b 39 be 93 e8 10 3f e6 8b a2 be 70 2f 0b 3e
       -0.18125539 0.5660488 -0.3174736 0.13592315
0001a0 38 96 a7 be 43 59 8b be e4 c9 c3 be f6 09 3d bf
       -0.32731795 -0.2721654 -0.38239968 -0.73843324
0001b0 6f 6b ae 3c 47 e0 44 be d4 cc fe be 98 65 55 3e
       0.021291463 -0.1922618 -0.49765646 0.20839536
0001c0 04 46 e5 3e be a5 ab be 86 91 1c be 67 43 10 bf
       0.4477998 -0.3352489 -0.15289888 -0.5635285
0001d0 85 61 7e bf 33 70 c8 3d 02 44 f1 3d 2d 03 5d 3b
       -0.99367553 0.09787025 0.117805496 0.0033723817
0001e0 36 39 15 3d 79 e1 3d 3e 61 83 b7 bd 43 dd e2 bd
       0.036431514 0.18543042 -0.089606054 -0.110773586
0001f0 67 65 11 3d 47 dd 67 be 39 ba aa 3e 09 ea 47 bd
       0.035497095 -0.22643004 0.33345202 -0.048807178
000200 83 06 07 be 56 b8 09 3e b7 c6 75 bc 27 e2 70 3e
       -0.13186078 0.13449225 -0.015000991 0.2352377
000210 13 7c 56 be db 52 c4 be 16 1f 04 bf ef ad c4 be
       -0.20945768 -0.38344464 -0.51609933 -0.3841395
000220 d0 82 a4 3e 3d 31 6d be 93 d7 13 3f a3 d8 0b 3e
       0.32131052 -0.23163314 0.57750815 0.13656859
000230 d5 bd 48 be 73 7b 00 3f 7f 2b cf be c9 12 9d be
       -0.19603665 0.5018837 -0.40462872 -0.30678394
000240 ff 29 df 3d a6 eb f0 be 39 fa 48 3e 9e 2b 52 3e
       0.10896682 -0.47054785 0.19626702 0.20524451
000250 b4 e0 15 3f 2f 74 9a 3e 19 b3 0d 3e 6e 55 c4 bd
       0.58545995 0.30166766 0.13837852 -0.09586607
000260 ac b8 d9 3c 04 fb 0d 3e 96 25 ab be 5d 0b 1f 3e
       0.026577316 0.13865286 -0.33427113 0.15531678
000270 ea 76 f9 bc ea c6 12 be ad 1d f1 be cc 61 a0 bd
       -0.03045221 -0.14333692 -0.47092953 -0.07831153
000280 49 9f 4e bd 73 50 94 bd 4b a1 20 be 1e a9 a1 bd
       -0.050444875 -0.07241907 -0.15686528 -0.07893585
000290 08 64 2c 3e d9 8e 68 3d cb 06 a1 3e ad c4 a0 bd
       0.16835034 0.056776855 0.31450495 -0.07850013
0002a0 e0 11 3d be 48 07 35 3e 2e ca cd 3e 8e 72 54 bc
       -0.1846385 0.17678559 0.40193313 -0.012966765
0002b0 e1 8f 8f be 60 8f 31 be ae fa 61 3d 88 3c 6a 3e
       -0.28039458 -0.1733985 0.055170707 0.22874653
0002c0 8e 85 28 3b 6b 22 1d 3e d1 be bf 3d 83 44 04 bf
       0.002571437 0.1534516 0.09362567 -0.5166704
0002d0 66 8b 9d be c7 b9 3f bd ec c8 fa be 9c 13 c1 bd
       -0.30770415 -0.04680803 -0.48981416 -0.09427568
0002e0 71 6f 4a 3e 5b d5 d9 3d 69 45 96 3d 50 cd 3d 3d
       0.19769074 0.106363975 0.07337458 0.04633838
0002f0 54 95 8f bd 05 05 15 be 35 b1 d9 bd c5 6d 3d 3e
       -0.07010904 -0.14552696 -0.10629503 0.18498905
000300 d7 71 27 be 31 95 f2 bd 65 27 a2 be d1 fa 22 bd
       -0.1635202 -0.11844862 -0.3167068 -0.03978998
000310 1a ed 00 3e 1d b7 50 3e 02 30 11 bf f0 51 42 3d
       0.12590447 0.20382352 -0.5671388 0.047441423
000320 0d a4 c6 be 49 cf 91 3e 8e 66 d1 3d f1 87 87 be
       -0.38797036 0.2847846 0.10224639 -0.26470903
000330 42 cf 15 3e f3 bf df 3d 41 23 37 bd 37 33 b9 be
       0.14629844 0.10925283 -0.044711355 -0.36171886
000340 fd f8 f0 bd 27 0d bf be 82 7b d9 bd 9b 32 e0 3e
       -0.11766241 -0.37314722 -0.1061926 0.4378861
000350 72 4d 1a be a8 b7 96 bd a4 f6 ad be d4 a6 a9 be
       -0.15068606 -0.073592484 -0.33977234 -0.33135092
000360 4b 98 23 be 3d 9c 57 bd 20 0b 0c be ae 75 f0 3e
       -0.15976064 -0.052639235 -0.13676119 0.46964782
000370 dd 60 45 3d b6 b4 95 bd c4 f0 60 3c 18 08 61 3d
       0.04818808 -0.073098585 0.013729278 0.05493936
000380 07 61 48 3c b1 32 2e 3f c6 f0 ac be e6 68 39 3e
       0.012230164 0.680461 -0.33777446 0.18106422
000390 f4 90 05 3f b7 b6 bc bd 25 d6 1e be 56 a8 b2 3e
       0.52174306 -0.092145376 -0.15511377 0.34894055
0003a0 97 2b 18 3e 5a e3 1a 3e c6 97 6e bd 26 42 df 3d
       0.14860378 0.1512579 -0.05825021 0.10901289
0003b0 f8 a0 a8 bd 3e 18 dc 3e 2f f8 64 3d 12 86 52 bb
       -0.08233827 0.42987245 0.05590075 -0.003212337
0003c0 fe 15 b0 3e 9b d9 1d be 2f 7a 5d 3d cf 50 be 3d
       0.3439178 -0.15415041 0.0540716 0.09292757
0003d0 09 e5 e4 be f0 4f d3 3e 03 20 d9 bd ae c6 2b be
       -0.4470599 0.41271925 -0.10601809 -0.16775009
0003e0 84 be 9e bd 33 5c e6 3d bd 85 27 be 2c 11 59 3e
       -0.07751182 0.11248054 -0.16359611 0.21197957
0003f0 e6 89 e0 be a1 f9 c5 3e 61 ec 06 bf b0 2c 03 bd
       -0.43855208 0.38667014 -0.52704436 -0.03202504

v_mem f4 [4, 16, 8, 8]
000000 00 00 00 00 00 00 80 bf ea d7 71 bf 84 5a f9 3e
       0.0 -1.0 -0.94470084 0.4870187
000010 97 a2 47 bf 00 00 80 bf 00 00 80 bf 00 00 80 bf
       -0.7798247 -1.0 -1.0 -1.0
000020 00 00 80 bf 00 00 80 bf 40 43 3f 3d 4d 8f 13 bf
       -1.0 -1.0 0.046694994 -0.57640535
000030 70 74 39 be d5 bb 1c bf 00 00 80 bf 00 00 80 bf
       -0.18110824 -0.6122411 -1.0 -1.0
000040 dc f0 15 3f 00 89 a6 3c 20 d3 ee 3e d4 a8 2d bf
       0.5857065 0.020328999 0.4664545 -0.67835736
000050 00 00 80 bf 00 00 80 bf 00 00 80 bf 00 00 80 bf
       -1.0 -1.0 -1.0 -1.0
000060 08 00 89 be 80 ba 15 bd 00 00 80 bf 00 00 80 bf
       -0.26757836 -0.036554813 -1.0 -1.0
000070 65 77 70 bf 99 04 75 bf 00 00 80 bf 00 34 c8 3d
       -0.9393218 -0.9571014 -1.0 0.09775543
000080 a4 be 57 3f dc bf 20 3f c8 ca cd be 54 5d 5f bf
       0.8427527 0.62792754 -0.40193772 -0.8725178
000090 b7 9e 7c bf dc 22 3c be 00 00 80 bf 00 00 80 bf
       -0.9867968 -0.18372673 -1.0 -1.0
0000a0 64 9c 0a 3f 80 5f 7a be d8 38 63 bf 82 8f 6f bf
       0.54144883 -0.24450493 -0.8875861 -0.9357835
0000b0 48 12 a5 bd d4 f4 02 be 00 00 80 bf 00 00 80 bf
       -0.080601275 -0.12788707 -1.0 -1.0
0000c0 00 00 80 bf 00 00 80 bf 70 22 57 bf e0 f1 67 bd
       -1.0 -1.0 -0.8403692 -0.056627154
0000d0 00 00 80 bf 00 00 80 bf 00 00 80 bf 00 00 80 bf
       -1.0 -1.0 -1.0 -1.0
0000e0 80 0c 75 bf 00 00 80 bf 00 00 80 bf 00 00 80 bf
       -0.957222 -1.0 -1.0 -1.0
0000f0 00 00 80 bf 00 00 80 bf 00 00 80 bf 82 41 69 3f
       -1.0 -1.0 -1.0 0.9111558
000100 00 00 00 00 00 00 80 bf 00 00 80 bf 00 00 80 bf
       0.0 -1.0 -1.0 -1.0
000110 00 00 80 bf 60 5a 78 bf 00 00 80 bf 20 a5 25 3d
       -1.0 -0.970129 -1.0 0.04044068
000120 00 00 80 bf 00 00 80 bf 00 00 80 bf 00 00 80 bf
       -1.0 -1.0 -1.0 -1.0
000130 2c 54 e5 3e 4c 4c 71 bf 22 c0 54 bf e6 28 7e bf
       0.4479078 -0.94257045 -0.8310567 -0.99281156
000140 00 00 80 bf 00 00 80 bf 00 00 80 bf 00 00 80 bf
       -1.0 -1.0 -1.0 -1.0
000150 84 eb 32 be 00 bf e8 3d 20 dc ce bd 70 98 2f 3f
       -0.17472655 0.11364555 -0.10100579 0.68591976
000160 00 00 80 bf 00 00 80 bf 80 f8 f3 bc 95 fb 2d bf
       -1.0 -1.0 -0.02978158 -0.6796201
000170 ce 69 71 bf d0 45 65 bf 12 0b 2c bf 00 00 80 bf
       -0.9430207 -0.8955965 -0.6720439 -1.0
000180 ea 1c 72 bf ad a6 6b bf 58 2a 12 bf 84 e4 f6 be
       -0.9457537 -0.920512 -0.5709586 -0.4822122
000190 00 00 80 bf 00 00 80 bf 70 6e 8f be 00 00 80 bf
       -1.0 -1.0 -0.28013945 -1.0
0001a0 1f 28 7d bf 48 91 06 be 00 00 80 bf e4 63 f1 be
       -0.98889345 -0.13141358 -1.0 -0.47146523
0001b0 68 56 32 be c0 b5 08 bc 33 f5 02 bf 00 00 80 bf
       -0.17415774 -0.008344114 -0.51155394 -1.0
0001c0 00 00 80 bf e8 d1 5b bf a8 f6 7f be 00 00 80 bf
       -1.0 -0.85867167 -0.24996436 -1.0
0001d0 35 d6 20 bf fc d2 2f bf a8 4e b1 be 00 00 80 bf
       -0.62826854 -0.6868131 -0.34630322 -1.0
0001e0 00 00 80 bf 00 00 80 bf 8c 6c 37 bf 2e fc 61 bf
       -1.0 -1.0 -0.71650004 -0.8827542
0001f0 e4 98 c4 3e a0 c8 4c 3f cf df 5d bf 00 00 80 bf
       0.38397896 0.7999363 -0.8666963 -1.0
000200 00 00 00 00 00 00 80 bf 00 00 80 bf 00 00 80 bf
       0.0 -1.0 -1.0 -1.0
000210 27 92 50 bf 20 8f 1f 3f f6 fb 39 3f d0 c1 6f 3f
       -0.8147301 0.62327766 0.72650087 0.9365511
000220 00 00 80 bf 00 00 80 bf 00 00 80 bf 00 00 80 bf
       -1.0 -1.0 -1.0 -1.0
000230 d8 23 c0 be dd 02 33 bf 1c 95 ab 3e bc c3 57 3f
       -0.37527347 -0.69926244 0.335122 0.8428304
000240 00 00 80 bf 00 00 80 bf 06 9d 4c bf 00 00 80 bf
       -1.0 -1.0 -0.799271 -1.0
000250 00 00 80 bf 58 2e 37 bf 00 00 80 bf 00 00 80 bf
       -1.0 -0.7155509 -1.0 -1.0
000260 00 00 80 bf ce 3b 56 bf f4 54 7f bf c0 39 75 bf
       -1.0 -0.83685005 -0.99739003 -0.95791245
000270 00 00 80 bf 00 00 80 bf 5e a9 75 bf 19 59 7b bf
       -1.0 -1.0 -0.9596156 -0.9818283
000280 8f 4c 7e bf 00 ce 58 bf b1 9f 75 bf 84 ae 6c bf
       -0.9933557 -0.8468933 -0.95946795 -0.9245379
000290 9b ae 74 bf 10 67 e4 be a0 95 10 3e 6c 67 ab 3e
       -0.95578927 -0.4460988 0.14119577 0.33477342
0002a0 00 5e 69 bb 60 8e 0f bd 00 00 80 bf 00 00 80 bf
       -0.0035609007 -0.03504789 -1.0 -1.0
0002b0 42 39 af be 70 f1 44 bf fa 4b 71 bf 00 00 80 bf
       -0.34223372 -0.76930904 -0.94256556 -1.0
0002c0 68 6c fe 3e d4 e3 b1 be 00 00 80 bf 68 c9 00 bf
       0.49692082 -0.34744132 -1.0 -0.5030732
0002d0 6a b5 20 bf 69 18 60 bf f6 e3 6b bf 00 00 80 bf
       -0.62776816 -0.87537247 -0.92144716 -1.0
0002e0 e0 76 fb 3e 70 c5 61 3e 24 29 74 bf 00 00 80 bf
       0.49114132 0.22047973 -0.95375276 -1.0
0002f0 00 00 80 bf 00 00 80 bf b0 06 79 bf 00 00 80 bf
       -1.0 -1.0 -0.9727583 -1.0
000300 00 00 00 00 50 dd b5 3e 4c 51 1d be 20 65 8f be
       0.0 0.3552041 -0.15363044 -0.2800684
000310 ac 3c 84 be 88 d3 70 bf 00 00 80 bf 74 ba b6 3e
       -0.2582754 -0.9407277 -1.0 0.35689127
000320 08 6a 92 3e ed 6e 72 bf 77 92 6f bf 00 00 80 bf
       0.2859652 -0.9470051 -0.9358286 -1.0
000330 3a 29 2f bf 4e 4d f2 be 0a 13 7c bf 00 00 80 bf
       -0.6842228 -0.47324604 -0.9846655 -1.0
000340 ce c4 6d 3f 74 f2 9c be 34 22 4f bf 00 00 80 bf
       0.92878425 -0.30653727 -0.80911565 -1.0
000350 00 00 80 bf 48 6c f2 3e a0 b6 bf 3e 09 fe 7f bf
       -1.0 0.47348237 0.3744402 -0.99997
000360 27 9e 3d bf 26 3b 00 3f 40 0e c7 3e 99 ed 7e bf
       -0.74069446 0.50090253 0.3887806 -0.99581295
000370 4e c0 7c bf fc 04 3e bf d8 27 01 3f 00 00 80 bf
       -0.98730934 -0.74226356 0.5045142 -1.0
000380 9f 37 7f bf f2 10 79 bf ac 41 20 3f 49 62 4f bf
       -0.99694246 -0.9729148 0.6260021 -0.81009346
000390 23 95 7b bf 00 26 48 bf e0 7e 69 3d 00 00 80 bf
       -0.9827444 -0.78182983 0.057005763 -1.0
0003a0 06 da 76 bf 00 00 80 bf 7a c9 4b bf c0 05 69 be
       -0.9642643 -1.0 -0.79604304 -0.227561
0003b0 00 00 80 bf 00 00 80 bf fc 17 73 bf 00 00 80 bf
       -1.0 -1.0 -0.9495847 -1.0
0003c0 d6 94 60 bf ef 05 79 bf 60 3b fa bc 9a df 64 bf
       -0.87727106 -0.9727468 -0.03054589 -0.8940369
0003d0 00 00 80 bf 5a a3 79 bf a4 fa 96 3e 00 00 80 bf
       -1.0 -0.9751488 0.294881 -1.0
0003e0 00 00 80 bf 00 00 80 bf 18 92 7b bf 00 00 80 bf
       -1.0 -1.0 -0.98269796 -1.0
0003f0 20 9a 31 3d d8 22 b4 3e 00 00 80 bf 00 00 80 bf
       0.043359876 0.35182834 -1.0 -1.0

weight f4 [15, 256]
000000 92 0b 46 be 28 20 2e be 4e bb f9 bd a6 f3 9c 3d
       -0.19340351 -0.17004454 -0.12193929 0.0766366
000010 56 e1 c4 3c 69 b1 46 3e 7d 7f 64 3e b1 ab fb bd
       0.02403323 0.19403614 0.22314258 -0.12288607
000020 8f f9 5c 3e de f2 1c 3d 76 b0 cd be 19 0a fe be
       0.21579574 0.038317554 -0.40173692 -0.4961708
000030 99 49 a2 be be 45 aa 3d 91 0c a1 bc 00 22 d7 3f
       -0.31696776 0.083140835 -0.019659312 1.6807251
000040 45 e5 21 be 31 3f 05 bc e3 d1 6c be 9f ab 9c 3c
       -0.15810116 -0.008132742 -0.2312694 0.019124804
000050 6b 34 7f bd 8f a6 00 3e e6 0a 6e 3e f8 29 62 bd
       -0.06230585 0.12563537 0.23246345 -0.055215806
000060 76 6e 10 3e 4e e5 28 3e db 9c 05 3e ad c7 06 3f
       0.14104638 0.16493723 0.13048117 0.5264843
000070 db 6a b7 3e 76 81 42 be 4a 32 85 be b5 91 3f be
       0.35823712 -0.18994698 -0.2601493 -0.18707927
000080 f4 8e c5 be af 5a a5 bd a6 2b 58 bb 2b c1 bc be
       -0.38585627 -0.08073937 -0.0032985 -0.36866125
000090 4b 3f 72 3d 8b a2 31 be ba 26 17 3e a3 23 97 3e
       0.059142392 -0.17347161 0.14760867 0.29519376
0000a0 f5 b1 55 3e 2d 55 db bd d5 01 4f 3e 41 68 bd 3e
       0.20868666 -0.10709605 0.20215543 0.36993602
0000b0 ed d9 32 be 57 13 97 3d 5e aa 69 bc fc 24 95 3e
       -0.17465945 0.07376736 -0.01426181 0.2912978
0000c0 5f e8 68 be 9d e6 76 bd 81 80 fa bd 61 b6 ff bd
       -0.22744893 -0.060278524 -0.122315414 -0.12485958
0000d0 3e 7a 61 3e aa af c4 be db be 83 be 34 08 43 3c
       0.22019288 -0.3841527 -0.2573155 0.011903811
0000e0 35 f8 f6 3e 63 d2 2b bd 9d 34 bf bd e7 43 9c 3d
       0.48236242 -0.041948687 -0.09336207 0.07630139
0000f0 d5 22 0e be 47 c0 89 be 12 fd a9 bc 79 0d 86 3e
       -0.13880475 -0.26904508 -0.020750556 0.26182154
000100 68 10 ed 3b 1c d7 a6 be 44 6e c0 be f5 40 f5 bc
       0.007234622 -0.3258599 -0.37584126 -0.0299382
000110 86 ac 57 3e e1 56 1f be d4 8d 03 bc 6a f1 37 3e
       0.21061906 -0.15560485 -0.00802942 0.17963186
000120 b2 fb 23 3d fd 5e 8f bd 5d c4 0c be 1a 54 80 3e
       0.040034957 -0.070005395 -0.13746782 0.25064164
000130 6f 05 66 bd c3 92 fd 3d a5 4a 87 bd 43 f8 21 bf
       -0.056157526 0.12381508 -0.06606034 -0.6326944
000140 8e d9 5b be f9 6e ca be a8 80 2c be 33 39 fd bd
       -0.2146971 -0.3953779 -0.16845953 -0.123644255
000150 3f c8 80 3e a3 04 2b 3d ca 77 a8 be 6f 1c ff 3d
       0.25152776 0.04175247 -0.32903892 0.12456595
000160 5c ab 72 3e 26 07 1e be 00 07 b7 3b 93 a0 95 3e
       0.23698181 -0.15432414 0.0055855513 0.2922407
000170 0e 30 62 be d7 8d 0a be 43 99 1a be 36 ef 3b 3f
       -0.22088644 -0.1353067 -0.15097527 0.7341188
000180 cb 4a 0e be 1b 7f cd 3d db 57 91 bd f9 9e de 3d
       -0.13895719 0.10034009 -0.07096835 0.108701654
000190 34 92 13 3e b8 87 f3 bd 3e 6a 49 3e c9 87 d3 bd
       0.14411241 -0.11891121 0.19669434 -0.10328633
0001a0 ab c5 67 3e 36 e0 f3 bd ab a5 66 3d d5 96 5e 3e
       0.22633998 -0.11907999 0.056310337 0.21737225
0001b0 82 43 ba 3c 83 35 a2 be 2d e0 1a be 92 5d 1c 3f
       0.022737268 -0.3168145 -0.15124579 0.61080277
0001c0 38 87 90 be 88 2d af be b4 f5 2d be 86 55 5a 3e
       -0.28228164 -0.34214425 -0.1698826 0.21321687
0001d0 89 ef 54 3d e3 32 60 3d e7 39 96 3c 08 6e 8e be
       0.05198625 0.05473603 0.018338157 -0.27818322
0001e0 7a 92 27 3e df 4d 3d 3e 0d 02 67 bb 0c 19 15 3e
       0.1636447 0.18486737 -0.0035249025 0.14560336
0001f0 6d 2a 8c 3c 69 bd 22 3f ff 02 15 3f ce 72 09 40
       0.017110074 0.63570267 0.58207697 2.1476321
000200 15 31 ae be de 5f 29 3e 14 54 11 bd 77 c1 ec bb
       -0.34021822 0.16540477 -0.035480574 -0.0072252112
000210 89 3c 73 3d 37 42 61 bd 70 e4 06 3e 08 5e 5b bf
       0.059383903 -0.054994788 0.1317308 -0.85690355
000220 47 86 6f 3e 32 52 45 be d7 6f ae 3e d9 13 85 bd
       0.23391066 -0.19269636 0.34069702 -0.06497926
000230 ab 18 10 3d 7e 30 16 be dc 12 33 be 58 df a4 3f
       0.035179775 -0.14666936 -0.17487663 1.2880659
000240 78 8f bd bd 02 99 b0 be 74 b4 2d 3d 9f 44 49 bd
       -0.0925588 -0.34491736 0.04240842 -0.049137708
000250 8d 77 92 bd fa 24 18 bf 21 e8 54 3c ba 21 00 bf
       -0.07151709 -0.5943142 0.012994797 -0.5005146
000260 7f 63 52 3d d6 5c 39 bd 47 02 65 3e 30 69 3c 3e
       0.051364418 -0.04525455 0.2236415 0.18399501
000270 c9 d6 81 bd 85 2a 8c be 04 ed 92 be a8 eb 46 3f
       -0.06339795 -0.2737619 -0.28696454 0.7770333
000280 ea 32 c9 3d f2 b2 d6 bc 85 dd 9b be 49 4c ae bd
       0.09824164 -0.026208375 -0.30442443 -0.08510644
000290 c3 22 22 3f e2 27 04 bf ed 23 25 bf a0 c7 05 3e
       0.6333429 -0.51623356 -0.64507943 0.13064432
0002a0 14 7b 99 3e c3 83 2e be b7 2b d3 be a6 0a 8c 3d
       0.29976714 -0.1704245 -0.4124429 0.068379685
0002b0 36 7e 8f 3d 50 5a c2 3d 38 14 68 bd a9 8d 9a be
       0.07006495 0.09489882 -0.056659907 -0.30186203
0002c0 a5 98 fe be ba 28 2b be dd ab a2 be c9 79 0e 3d
       -0.49725834 -0.16714755 -0.31771746 0.034784112
0002d0 f3 ec b2 3d ff 05 cf bd 47 31 0a bd c7 ad 78 3e
       0.08736601 -0.101085655 -0.0337384 0.24285041
0002e0 12 f4 4c 3e 44 6c 5b 3d 2f 31 1c 3d 73 bc b8 3e
       0.2001498 0.053570047 0.038132843 0.36081275
0002f0 28 9a a8 3d 31 57 8e bd f7 cc 22 be e4 f0 08 3e
       0.08232528 -0.06950224 -0.158985 0.13373142
000300 d5 6b c5 3d 1a 6a e0 bd af 32 2d 3e 54 9f 89 3d
       0.09639708 -0.10957737 0.16913866 0.067198426
000310 f6 a4 0a be 5a 00 36 3d 77 ec 01 bd 95 40 db bd
       -0.1353949 0.04443393 -0.03171965 -0.107056774
000320 13 34 ab bd ee 6b 10 bd cc c8 02 3e 3f 13 30 3d
       -0.08359542 -0.03525918 0.1277191 0.042987105
000330 c4 62 8e bd 7c a1 04 be ae a6 14 bd 9e c2 ba be
       -0.06952432 -0.12952226 -0.03629177 -0.36476606
000340 ae 7d 8f bd 78 4d 0e 3e f6 3e 24 be d3 9c bb bd
       -0.070063934 0.1389674 -0.16039643 -0.09160771
000350 50 b6 8e 3d 10 65 99 3d 9c 9f 98 be 40 d9 4b 3e
       0.06968367 0.07489979 -0.29809272 0.19907093
000360 4e ee df 3c ca 43 6d be 1b 84 88 be 28 dc 94 3e
       0.027335312 -0.2317039 -0.26663288 0.29074216
000370 9c 94 5b bd d5 55 63 3e 42 dd dc bd f1 bd 42 be
       -0.05360852 0.22200711 -0.10784389 -0.1901777
000380 81 71 f4 3d c1 62 00 be 63 f8 44 bc fe 80 e1 3d
       0.11935712 -0.12537672 -0.012022111 0.110109314
000390 75 4d ed 3d de 4b 82 3d 44 ed bd bd e9 7d f8 3d
       0.115870394 0.06362127 -0.092737705 0.121333905
0003a0 b0 60 37 3d fb 9c f2 bd c7 7a e0 bd b4 77 71 3d
       0.044769943 -0.11846348 -0.10960918 0.05895205
0003b0 d5 21 8a 3d 74 ae ec 3c 1c 08 ed bd 99 5b 0e bd
       0.06744734 0.02889178 -0.11573812 -0.034755323
0003c0 8f 10 74 bd 5d 97 fe bb 56 88 98 be 4f 4b 3e bd
       -0.059586104 -0.0077695088 -0.29791516 -0.04645854
0003d0 0a c6 4f 3d 5b 31 9e bc a4 99 df bc 89 ea 6c 3e
       0.050725974 -0.019310644 -0.027294941 0.23136343
0003e0 d6 ee 80 3d 0e 4e 59 bd 18 e5 18 be 27 ca 1c be
       0.06295554 -0.053052954 -0.14931142 -0.1531149
0003f0 83 ab 4e 3c 47 87 ed 3c c3 ad 96 bd 3f cb 05 bd
       0.012614134 0.02899517 -0.07357361 -0.032664534

v_mem f4 [4, 15]
000000 00 00 80 bf 21 66 61 bf 30 1c 6c bf a4 37 7c bf
       -1.0 -0.8804646 -0.9223051 -0.985224
000010 00 00 80 bf 2a 51 7b bf ed 71 7c bf e0 84 46 bf
       -1.0 -0.9817072 -0.98611337 -0.775465
000020 14 fb 68 3f 80 92 fe 3c 28 37 3f 3e ee 7f 73 bf
       0.91008115 0.031075716 0.18673384 -0.9511708
000030 0c 5a 6a bf 24 c7 4c bf 88 de f3 bd 00 00 80 bf
       -0.9154365 -0.79991364 -0.11907679 -1.0
000040 19 cc 6e bf 54 f9 5b bf 00 00 80 bf 00 00 80 bf
       -0.9328018 -0.8592732 -1.0 -1.0
000050 00 00 80 bf 00 00 80 bf 00 00 80 bf 5e 82 a9 be
       -1.0 -1.0 -1.0 -0.33107275
000060 74 8b c1 3e 20 27 32 3e bc cc 53 bf 62 77 63 bf
       0.37801707 0.17397738 -0.82734275 -0.8885404
000070 38 b9 69 bf d6 cf 00 3f 00 00 80 bf 00 00 80 bf
       -0.91298246 0.5031713 -1.0 -1.0
000080 a5 02 71 bf 0a 4e 7c bf 00 00 80 bf db 09 7e bf
       -0.9414466 -0.9855658 -1.0 -0.9923379
000090 90 79 53 bf ce b9 46 bf c0 85 81 3c e8 31 9c 3e
       -0.82607365 -0.77627265 0.015810847 0.30506825
0000a0 66 4e 57 3f 00 00 80 bf 00 00 80 bf 00 00 80 bf
       0.84104 -1.0 -1.0 -1.0
0000b0 70 72 28 bf 00 00 80 bf 00 00 80 bf 00 00 80 bf
       -0.6579962 -1.0 -1.0 -1.0
0000c0 00 00 80 bf 00 00 80 bf 00 00 80 bf 00 00 80 bf
       -1.0 -1.0 -1.0 -1.0
0000d0 28 07 46 3e 94 1b a3 3e 40 9c cf 3e 04 1d 1c 3f
       0.19338667 0.31856978 0.40548897 0.60981774
0000e0 f0 9c 77 3e a4 3a 06 3f a8 ce ce be b6 b2 28 bf
       0.2418096 0.5243323 -0.4039204 -0.6589769
